model/model_pp.pth (torch_old, 353840 bytes, 37 tensors)

mask f4 [92]
000000 16 5c 80 3c 20 83 0f 3d 24 04 29 3d 13 94 41 3e
       0.01566891 0.03503716 0.041263714 0.18904142
000010 99 cf 4b 3e ce 35 7a 3e 1b 16 32 3e f4 80 56 3e
       0.19903411 0.24434587 0.17391245 0.20947629
000020 06 4d a7 bd cc 8e 5d bc e8 1e 60 3e 07 d8 88 3c
       -0.08168988 -0.013522815 0.2188679 0.016704572
000030 fd c1 dc bc cf 4d e7 3d f6 b0 9e bd ab e1 38 3e
       -0.02694797 0.11294138 -0.07748596 0.18054835
000040 74 f0 fb 3c 80 08 7e 3e 32 61 72 3d ad 0d 5f 3e
       0.030754305 0.2480793 0.059174724 0.2178256
000050 a3 5d 07 bd 9e a5 54 3e 18 9b 3c 3d b5 3a f5 3d
       -0.033048283 0.20766303 0.046046346 0.11974088
000060 9c 9f 02 3e bd bc 4c 3e 82 79 ae bd e1 66 15 3e
       0.12756199 0.19993873 -0.085192695 0.14590026
000070 34 9b 86 3d 24 64 25 3e f9 a4 3c 3e 9f 7f 24 3e
       0.065725714 0.16151482 0.18422307 0.16064309
000080 23 4d ce bb bc 42 27 3e f5 e4 40 3c cf 93 a4 bc
       -0.0062958165 0.16334051 0.011773338 -0.020090012
000090 c6 bc 7a bc a0 56 9e 3d b7 c6 f9 3d 3c 8a f1 3b
       -0.015303796 0.07731366 0.12196105 0.007371215
0000a0 b4 a8 f3 3c 7b 03 f7 3d 91 b1 fa 3d e9 42 30 3e
       0.02974353 0.12061211 0.12240899 0.17213024
0000b0 9c 59 cd 3c b0 dc fc 3b cd 5d 53 3e b5 7d 12 3e
       0.025067143 0.0077167377 0.20641251 0.14305766
0000c0 a6 ad a3 3d 41 ec 18 3e b0 18 58 3b a5 d3 db 3d
       0.07992105 0.14933874 0.00329737 0.10733727
0000d0 32 3a a4 bb a2 61 83 3e cb 26 38 3e a3 d6 ae 3d
       -0.0050118202 0.25660425 0.17983548 0.085370325
0000e0 2e e1 60 3e 44 54 1f 3e 13 ec db 3d d8 57 24 bd
       0.21960899 0.15559489 0.10738387 -0.040122837
0000f0 09 e6 00 3e bd 41 88 bd 4b 58 b0 3d 78 5c f8 3d
       0.12587751 -0.066531636 0.086105905 0.12127012
000100 2b 15 1e 3e 42 a2 22 3b d7 4c 1b bb 69 46 97 3e
       0.15437762 0.0024815951 -0.0023696923 0.29545906
000110 73 3c b5 3d d7 4c 1b bb 87 78 ce 3d d7 4c 1b bb
       0.088494204 -0.0023696923 0.100815825 -0.0023696923
000120 b0 ed da 3d 13 b1 ed 3d d0 5b b0 3b 92 3e 2f 3e
       0.106898665 0.1160604 0.0053820387 0.17113712
000130 d7 4c 1b bb 21 dd 34 3c 8d f3 aa 3d a8 71 2f 3e
       -0.0023696923 0.011039049 0.08347235 0.171332
000140 49 d7 82 bd 41 98 5b 3c 49 1e 32 3e ac b0 48 3e
       -0.06388719 0.013402999 0.17394365 0.19598645
000150 93 73 3d 3e cf e5 0e 3e 7f 5a b2 3d 01 8a 24 3e
       0.1850112 0.13954853 0.08708667 0.1606827
000160 92 b3 42 3e ce 68 8d b9 28 dd d4 bb c6 17 a4 3d
       0.19013813 -0.000269717 -0.0064960904 0.08012347

weight f4 [64, 92]
000000 35 1f 16 3e 05 32 1f 3f 87 ee 9b 3e da c9 8c 3f
       0.14660342 0.621857 0.3045542 1.09991
000010 de 65 bb 3f 90 f9 17 3f 62 c5 9a 3d 14 07 8e bf
       1.4640462 0.5936518 0.07557179 -1.109591
000020 99 94 42 3f e0 e7 71 3f 6d bd 70 bf 10 79 c4 be
       0.7600799 0.9449444 -0.9403904 -0.38373613
000030 9b af 82 3b 51 01 53 3e 2f 96 30 be a0 eb 52 bf
       0.003988219 0.20605971 -0.1724479 -0.82390785
000040 c6 04 0b be c3 d6 4b 3e 5f e6 b4 3d e1 fc d2 3e
       -0.1357604 0.19906144 0.08833002 0.41208556
000050 d2 b2 0c 3c 75 83 19 bf 33 72 85 be 60 8c 68 3f
       0.008587556 -0.5996621 -0.2606369 0.90839195
000060 4d fc 8e 3e 03 be a7 bd a8 7e 83 3e 73 ef d3 bd
       0.27926865 -0.08190539 0.2568257 -0.10348406
000070 68 72 7c 3e 91 29 e7 be 76 b4 53 3e b5 64 cb bf
       0.24653018 -0.451489 0.20674309 -1.5890108
000080 52 70 a5 3c 87 e2 ee be 77 87 ad 3c f0 f2 01 be
       0.02019516 -0.46657202 0.021182759 -0.1269033
000090 e1 f2 a8 bd 74 b5 4b bd fb 76 83 3e 0d 2c 5d be
       -0.082494505 -0.049733594 0.25676712 -0.21598835
0000a0 33 52 91 bf 7c 4c 4a 3f f1 15 06 3f f0 b7 8c be
       -1.135321 0.79022956 0.5237723 -0.27484083
0000b0 a2 e9 21 bf 48 e8 d0 3e db fb d2 3d d0 99 7f be
       -0.6324712 0.40802217 0.10301944 -0.24961019
0000c0 0b 74 12 bd d6 73 50 3f 9e 4a 84 3e 1d ef e7 be
       -0.0357552 0.8142675 0.25838178 -0.45299616
0000d0 f9 96 c1 3e a4 9f 07 c0 69 9f b4 bc 5b d8 b5 be
       0.37810495 -2.1191187 -0.022048669 -0.3551663
0000e0 3a dd 79 bf 0e 74 96 bf b4 f7 ed bd cf b5 30 be
       -0.9760319 -1.1754167 -0.11619511 -0.17256854
0000f0 27 e0 8a 3e 51 e3 0f 3f f3 93 4a bf 0e 38 e3 bc
       0.2712414 0.5620623 -0.79132 -0.02773669
000100 8b 97 bf 3e 13 d8 3e 3e da 5a 4e 3d d5 4c 9b 3e
       0.37420306 0.18637113 0.05037961 0.30332056
000110 8e 97 c8 bd 18 f7 7d bd 1a 45 6a be ce d0 c7 bd
       -0.09794532 -0.062003225 -0.22877923 -0.09756623
000120 50 19 ba be 2d 83 05 bf 86 bc 8e be 49 c0 f7 3d
       -0.36347437 -0.52153283 -0.27878207 0.12097222
000130 92 f9 68 3d b4 41 b7 bd fd 57 16 3d 87 3d 88 3d
       0.056878634 -0.08948079 0.036705006 0.066523604
000140 7a 1d 97 be ab 9c 9b be 58 49 c6 3d 1d e9 4a bf
       -0.29514676 -0.30392966 0.09681958 -0.7926195
000150 3f 45 ab bf d1 cc b3 3e 94 8d 86 3e 2f 5d f5 bd
       -1.3380507 0.351172 0.2627989 -0.11980664
000160 d3 15 1b bf e2 aa 40 be 31 99 41 3e ed 99 62 3e
       -0.60580176 -0.18815187 0.18906094 0.2212903
000170 60 08 87 3e 6f 88 36 3e 54 ef ee bd 81 36 9e bf
       0.26373577 0.17825483 -0.11666742 -1.2360383
000180 a5 00 db 3f e4 e3 16 40 2c 8f 80 bf d6 6d 1d bf
       1.7109572 2.3576593 -1.0043693 -0.6149572
000190 42 cb 43 3f 3c cc 8f 3d 6a 04 d8 be 69 69 ac be
       0.7648202 0.070213765 -0.42190868 -0.33674172
0001a0 39 36 1e bf 70 63 aa bd dd 94 26 3f 7f dd d5 3e
       -0.6180149 -0.083197474 0.650709 0.4177055
0001b0 b7 58 e6 be dd 93 ae 3f de be 31 bd 78 4d 63 3e
       -0.4498956 1.3638874 -0.043394916 0.2219752
0001c0 6e 4e da be c2 1a 4e bf 0d 17 40 bd 32 b6 35 bd
       -0.42637962 -0.8050958 -0.046896983 -0.044363208
0001d0 35 5c 5d be 13 a1 a7 bd 73 8b 15 3f be c3 dd 3d
       -0.21617205 -0.08185019 0.5841591 0.108283505
0001e0 e9 e1 16 3f 50 2f 87 be a5 22 52 bf d5 69 94 bf
       0.5893846 -0.26403284 -0.82084113 -1.1594797
0001f0 ab d9 ed be a3 83 8d bc 79 bd 3c be b4 94 b0 be
       -0.4645513 -0.017274683 -0.18431653 -0.3448845
000200 c8 ab 17 3f ff 14 98 3e f3 37 ca be cd f1 2c 3e
       0.5924649 0.2970352 -0.3949581 0.16889115
000210 4b 38 69 bd d9 ef b8 bf 51 4c 18 bf 96 5d a9 bf
       -0.05693845 -1.4448196 -0.5949145 -1.3231685
000220 8b 8a 03 be 0b 05 a2 be b0 39 2f bf a9 27 38 bf
       -0.12845819 -0.31644472 -0.684474 -0.71935517
000230 36 e6 fc bd 30 38 6d be 79 a8 d5 3e 05 45 1a bc
       -0.12348597 -0.23165965 0.41730097 -0.00941587
000240 a5 51 0e bd b1 31 25 bf 5b 5d 0a bf 01 bb a3 be
       -0.03474583 -0.6452895 -0.540487 -0.3197861
000250 27 b9 16 c0 57 df e3 3e 88 38 eb 3d 0d eb d3 3e
       -2.3550508 0.44506332 0.11485392 0.41390267
000260 50 1f e4 bd 36 ee d7 3e 19 26 8a be b1 bf 5d 3e
       -0.11138785 0.42173928 -0.2698219 0.21655156
000270 f6 d1 0f bf ed f0 af 3e 7e 6c 05 3d 0a f4 fc 3c
       -0.5617975 0.343635 0.03257417 0.030878086
000280 a1 e3 07 3d 12 fb 07 3d a0 30 52 3c b5 75 c7 3d
       0.03317607 0.033198424 0.012828976 0.09739248
000290 77 04 54 bf c5 4d 3e 3f 7d 75 5f be 95 91 37 3f
       -0.8281931 0.74337417 -0.21822162 0.71706516
0002a0 a6 f2 28 3d a3 a4 e0 3e ba 67 e4 be 3a 73 1f 3e
       0.041247033 0.43875608 -0.44610387 0.15571299
0002b0 5d e2 9d 3d c8 8c f0 be d9 4c a8 3e 96 91 52 bf
       0.07709191 -0.46982408 0.3287113 -0.82253397
0002c0 5b 07 d5 be 25 a4 85 bf 33 1f a8 bd 8b 08 bf bd
       -0.41607174 -1.0440718 -0.08209076 -0.09327801
0002d0 c8 ed f7 bf 66 db a0 3d 62 19 1a bf ae 5b 2a 3f
       -1.936944 0.07854347 -0.6019498 0.6654614
0002e0 cf a5 eb bd 65 ac 63 3f eb d6 c1 be 63 68 00 be
       -0.11506235 0.8893493 -0.37859282 -0.1253982
0002f0 34 39 15 bd 69 67 eb 3e e4 19 e6 be e8 91 86 3f
       -0.036431506 0.45977333 -0.44941628 1.0513277
000300 94 d2 60 3e a9 b3 da be 5a 51 7d bf 28 af a9 3e
       0.21955329 -0.42715195 -0.9895226 0.33141446
000310 14 1f 4a bf 47 62 ab 3f 14 3c 0f 3f 60 55 0f 3f
       -0.7895367 1.3389367 0.55951047 0.55989647
000320 92 51 73 3e ce 7a 25 bf a9 0c 0b c0 7a 63 0a 3f
       0.23761585 -0.6464051 -2.1726477 0.5405804
000330 46 4b 30 3f 66 8a 2f bf 7a 48 5c bd 0c cd 52 3f
       0.6886486 -0.68570554 -0.053780057 0.82344127
000340 21 d0 9d 3e f9 bd 4d be 0b c8 33 3f c5 2d 04 3e
       0.30822852 -0.20092 0.70227116 0.12908085
000350 f8 d7 2d bd 9c b3 3f 3f c9 de 96 3e ff 54 3b bf
       -0.042442292 0.7488344 0.29466847 -0.7317657
000360 36 f3 38 3e 55 39 82 3e c2 e0 ab 3e fb c7 33 3e
       0.18061528 0.25434366 0.33569914 0.17556755
000370 0b 8c 83 be 7f 09 33 bf 1b 93 38 3f 89 78 2b bf
       -0.25692782 -0.69936365 0.72099465 -0.669808
000380 9d 9a 6f bc 4a db 06 40 c8 13 b9 3e 65 e7 e4 3e
       -0.014624265 2.1071343 0.36147904 0.4470779
000390 84 e7 6e 3e 8c fe 13 3f e3 4b f7 3e 82 90 a2 be
       0.23330504 0.5781028 0.48300084 -0.31750876
0003a0 df a1 a7 be cd 35 23 3f 67 f1 53 be 4a 67 35 bf
       -0.32740685 0.6375397 -0.20697556 -0.7086073
0003b0 31 f5 27 bd 61 1a 13 bf e8 de 20 3f cf 5d 76 bf
       -0.041005317 -0.57462126 0.6284013 -0.9623689
0003c0 50 6d 71 3f ff 5e ac 3f 28 0f 1d 3e 80 75 ec 3e
       0.9430742 1.346649 0.15337813 0.46183395
0003d0 d0 3e 83 3f 8f ff 7f bc ba b2 70 be 9f ef 5d be
       1.0253544 -0.015624895 -0.23505679 -0.2167344
0003e0 87 4d a3 3e 3b 3a 99 3d 1b ee b5 3d b1 af 8e 3f
       0.31895086 0.0748181 0.08883306 1.1147367
0003f0 08 67 7a bf e8 7c 80 3c 94 93 8d 3d 9d 0e 93 3d
       -0.97813463 0.01568456 0.06912914 0.07180522

weight f4 [128, 169]
000000 24 aa 95 be 77 5f 6f 3f 06 a1 62 3f 5c ed c8 bf
       -0.2923137 0.9350504 0.8852695 -1.5697436
000010 d9 9b f9 be f6 ce 98 3d da ad 16 bf 39 bb 7d 3c
       -0.48751715 0.0746135 -0.58859026 0.015486532
000020 14 e9 a6 be 3d b7 e9 be 65 8d f8 3e 9b 4d 1a bf
       -0.325997 -0.45647612 0.48545375 -0.60274667
000030 0f 29 f8 bb f0 8d a8 be 50 df ce be c9 34 75 3f
       -0.007573254 -0.3292079 -0.4040475 0.9578367
000040 a2 16 cb be 79 7d aa bd 79 f3 c7 be 9f 77 05 c0
       -0.39665705 -0.08324713 -0.39052942 -2.085426
000050 b6 1a 00 c0 c6 30 ef 3e cc 23 09 3e 03 ae 01 bf
       -2.0016303 0.467169 0.13392562 -0.50656146
000060 1f 4d 50 bf 1d e1 f9 3e a0 ba 0f 3f 81 52 03 bf
       -0.8136768 0.4880456 0.5614414 -0.51297766
000070 21 7d 15 bd 80 37 cb bd 53 71 89 3f 79 8b 82 bf
       -0.036496285 -0.09922695 1.0737709 -1.0198814
000080 55 de 1e bf e4 49 ad 3f 00 ce 71 bf 79 7b 18 be
       -0.62058 1.3538175 -0.94454956 -0.14890851
000090 4c 51 22 be 71 ae 80 be c0 b3 db be 3c d7 6a bf
       -0.15851325 -0.25133088 -0.42910576 -0.9173467
0000a0 d4 35 48 bf 62 f0 e1 bf c4 bb 4a bf 82 56 94 3e
       -0.78207135 -1.7651484 -0.7919276 0.2897225
0000b0 6d 6a 16 3d fd 4f b4 be c1 28 d0 3e 2d 00 0e bf
       0.03672259 -0.35217276 0.40656093 -0.5546902
0000c0 13 29 81 3e ed 52 87 bf 15 52 38 bf 5e d8 3b 3e
       0.2522665 -1.0572182 -0.7200025 0.18344256
0000d0 f9 7e 70 3f 4b 53 90 3f 81 8a b0 bf f1 97 87 3e
       0.93943745 1.1275419 -1.3792268 0.2648311
0000e0 73 17 1b bf 93 58 22 3f bc 37 9e bf f0 fa fd bc
       -0.60582656 0.63416404 -1.2360759 -0.031003445
0000f0 a2 6a 74 bf f7 59 d0 bf b9 0d 79 3e fd 06 20 3f
       -0.9547521 -1.6277455 0.24321641 0.62510663
000100 1d cb 8f bf f8 94 89 be 9e 9e 2c 3f 7b a9 18 40
       -1.123386 -0.26871467 0.6742953 2.3853443
000110 54 3e 3a 3f 8e d7 0b 3f 37 0d f3 3f 3d 94 5d 3e
       0.72751355 0.54625785 1.8988408 0.2163858
000120 7d 5e 41 3f 7e 7c ae bc 74 53 cc 3d 26 21 d2 3f
       0.755348 -0.021299597 0.09976855 1.6416366
000130 73 c4 9c 3d be e8 89 bf d4 0b 86 3e 42 ac f2 bc
       0.07654657 -1.0774152 0.261809 -0.029623155
000140 a7 85 9e 3e 60 86 f3 3d 9e 82 c5 3e 54 8e 1b 3e
       0.30961344 0.11890864 0.38576216 0.15191013
000150 bd 56 a3 3f 25 4f cf bf 54 90 15 be 5c ec 0b bf
       1.2760845 -1.6196028 -0.14605838 -0.5465753
000160 4c 04 08 3f 04 e7 71 bf f9 34 20 3f 1a cd 07 3f
       0.53131557 -0.94493127 0.6258083 0.53047335
000170 ef 70 1e 3e 61 9d 2e c0 72 5a b7 be fd 2b b3 be
       0.15472768 -2.7283556 -0.35811192 -0.34994498
000180 82 39 4b 3f 1d 67 75 bf 7f 97 dc 3d 2c a8 4f bf
       0.79384625 -0.95860463 0.10771083 -0.81115985
000190 1c 46 cf bf 13 60 eb 3e cb 05 a0 bf 8e 79 e0 be
       -1.6193271 0.45971736 -1.2501768 -0.4384274
0001a0 eb 37 34 3f 97 39 09 bf cf 3b 17 3f d8 f2 a3 3f
       0.70397824 -0.536035 0.59075636 1.2808485
0001b0 ec 6d e3 3e 4f 3e 46 bf 80 10 35 3e f2 46 b8 bf
       0.444198 -0.77438825 0.17682076 -1.4396651
0001c0 03 5e 7e bf 9c fa d6 bf 47 bf 74 bd c0 09 d8 be
       -0.993622 -1.679523 -0.05975273 -0.4219494
0001d0 01 6c 50 be 10 a5 0b c0 d4 d7 f9 be 31 f0 62 3f
       -0.203537 -2.1819496 -0.48797476 0.88647753
0001e0 4b 7a 44 bf 6e 8b e1 3e de 92 90 bf 4f 29 a4 bc
       -0.76749104 0.4405169 -1.129482 -0.020039229
0001f0 3d b6 bf be c9 57 34 bf d6 04 3e 3f 2b 47 1c 3f
       -0.37443724 -0.7044645 0.7422613 0.61046094
000200 df 64 15 bc 23 a0 53 bc ba bc 54 3e dd e1 e2 bf
       -0.009118288 -0.012916598 0.20775118 -1.7725178
000210 3a 3d 91 c0 c7 11 76 c0 55 30 8f 3e f4 1e 8a 3e
       -4.538724 -3.844835 0.27966562 0.2697674
000220 15 f3 7e bf f1 1d 17 c0 1b 04 eb bf 9c 33 91 3f
       -0.99589664 -2.3612025 -1.8360628 1.1343875
000230 22 07 44 be fd 3a db 3e 08 08 c1 3f bc f1 fa 3f
       -0.19143346 0.42818442 1.5080576 1.9605021
000240 57 e8 da 3f 2a 30 b7 3f 4e ed 8e 3f e8 3f f8 3e
       1.7102154 1.4311574 1.116617 0.48486257
000250 4b d7 aa bf 5f a0 85 bf d7 4d 25 3f 68 37 10 c0
       -1.3346952 -1.0439566 0.645719 -2.2533817
000260 19 6f 87 c0 e5 01 10 c0 1b e5 aa 3f a3 b8 7f be
       -4.2323117 -2.2501156 1.3351167 -0.24972777
000270 e0 8c 5c c0 f9 be ab bf df 08 f5 3f e2 a3 49 40
       -3.4460983 -1.3417655 1.9143332 3.1506276
000280 2c 50 80 40 8c 4b 96 40 80 05 90 40 b8 97 be 3f
       4.0097866 4.696722 4.5006714 1.4890051
000290 e8 c0 c9 bd 41 8a 2c bd 71 b9 7e 3c dc b2 2b 3d
       -0.09851247 -0.042124037 0.015547142 0.04191862
0002a0 2d 52 55 bd 7a dd 58 bf fc 60 0e bd 63 6e 86 bf
       -0.052080322 -0.84712946 -0.03476046 -1.0502437
0002b0 d5 fc de 3e 14 cf 91 3e 9b ec 10 bf 3a c4 36 be
       0.4355227 0.284783 -0.5661103 -0.17848292
0002c0 a5 1e e6 3d cf 96 af 3e c6 ce 98 bf 66 1b e5 3f
       0.11236314 0.34294745 -1.1938102 1.7898986
0002d0 ac 75 b2 3f db 59 1d be cf 3c 64 bf 36 19 08 3f
       1.3942161 -0.15366308 -0.89155287 0.5316347
0002e0 b5 5d 92 be 5d 13 b5 bf 2c 43 32 3e f4 63 b6 be
       -0.28587118 -1.4146534 0.17408437 -0.35623133
0002f0 57 aa 15 bf 89 7b 1b 3f 69 61 ea bf dd fb e8 3f
       -0.5846304 0.60735375 -1.8310977 1.8201863
000300 70 12 4f 3e 37 fb 23 c0 60 ba 71 bf 4a 8c 86 3f
       0.20221877 -2.562208 -0.9442501 1.0511563
000310 2c 2c 55 3e 88 b6 97 be ab 94 a1 bf ca aa 8b 3d
       0.20817631 -0.29631448 -1.2623495 0.06819685
000320 4d 6f 3f 3f f7 28 d4 bf 88 7d cc be a6 68 1b bf
       0.74779207 -1.6575001 -0.39939523 -0.60706556
000330 1f b7 1d bf 8f d5 8f bf 2b fb 89 bf 77 99 e6 bf
       -0.61607546 -1.1237048 -1.0779775 -1.8015584
000340 79 9c b2 be 0f 35 1a bf 93 b0 94 bf 90 59 1e 3f
       -0.34885004 -0.6023721 -1.1616386 0.6185541
000350 c3 5c 27 40 61 e6 27 40 96 df d3 bf 8f 15 3a bf
       2.6150367 2.6234362 -1.6552608 -0.72689146
000360 a8 c4 9a bf 40 2e 68 bf 81 f9 ad bd 92 04 e3 bf
       -1.2091265 -0.9069557 -0.08494855 -1.773577
000370 56 65 b8 bf 72 e7 c0 be 93 0a 4e be f2 2c 6e 3f
       -1.4405925 -0.3767658 -0.20121221 0.9303733
000380 dc 26 a7 be 9d 4e 8c 3e 18 9a 9b 3e 42 dc c2 bf
       -0.32646835 0.27403727 0.30391002 -1.5223467
000390 5f 2e 1c 3e 8c ed 0d 40 50 0b e9 bf 8e 45 66 3e
       0.15252064 2.2176237 -1.8206577 0.2248747
0003a0 11 29 92 3f 7f 60 c6 bf e4 33 34 be 2c 0b 41 bf
       1.1418782 -1.5498198 -0.1759792 -0.7540767
0003b0 34 ad d3 3e eb ae 9d 3f a3 72 ce 3d d5 ca f9 3d
       0.4134308 1.2319006 0.10080459 0.1219689
0003c0 26 dc d7 bf a8 34 b8 3e 34 31 86 be 63 59 64 3e
       -1.6864059 0.35977674 -0.26209414 0.22299723
0003d0 08 06 e9 3f 59 46 79 3f 89 92 88 3f 75 02 9f bf
       1.8204966 0.97372967 1.0669719 -1.2422625
0003e0 d0 a4 29 3e 8d c8 43 3f 84 ea 10 bf 6b 39 97 bf
       0.16566777 0.7647789 -0.5660784 -1.1814398
0003f0 b6 a3 c9 be 4a ea 61 be af cf b7 be 12 26 ed be
       -0.39382714 -0.2206203 -0.35900638 -0.46318108

bias f4 [128]
000000 7a f5 51 3d 7f 28 fb bc 4b c0 ba bc a3 69 f9 3d
       0.051259495 -0.030658958 -0.02279677 0.12178352
000010 2f ab 0a 3e e0 21 89 3b fb 75 e0 bd 31 14 b1 bc
       0.13541864 0.0041849464 -0.10960003 -0.021616073
000020 60 9d 7c 3d 64 c6 ef bd 39 72 80 bd 68 ec 60 3e
       0.061673522 -0.11707762 -0.06271786 0.21965182
000030 cf 23 ae 3d f2 ae 1a 3e 06 ac 82 3d 44 37 8b be
       0.08502924 0.15105799 0.06380467 -0.27190602
000040 ed 59 2a 3e bf 90 26 bd c4 ed 76 ba 75 72 ff 3d
       0.16635866 -0.040665384 -0.0009419585 0.12473003
000050 09 1e ff 3e 46 5c 3d be 64 24 98 3d b5 ce 4e 3c
       0.49827603 -0.18492231 0.07428816 0.012622525
000060 27 11 43 be 20 2f 21 bd cf b6 9c 3e e9 74 9c 3d
       -0.19049512 -0.039351583 0.30608222 0.07639486
000070 f5 e9 30 bd 84 e6 2b 3e 60 4d a5 3b 2c d0 8d bc
       -0.04319187 0.16787153 0.005044624 -0.017311178
000080 f4 55 06 be 26 8e 9c bc 34 66 33 3c 08 61 48 bd
       -0.13118726 -0.01911075 0.01094966 -0.04892066
000090 08 8b 56 be 7c 51 e5 3d 06 89 db 3c de ee 00 be
       -0.20951474 0.111971825 0.026798736 -0.1259112
0000a0 8c 75 15 3d e4 f7 1b be a5 4f 47 3d 8a 1e 1f be
       0.036489055 -0.15231282 0.04865994 -0.15538993
0000b0 d4 84 b7 be 28 e5 b0 3c 4b b1 79 ba 4d 52 a1 3e
       -0.35843527 0.021593645 -0.0009525015 0.31508103
0000c0 5c bb 99 3d b5 5c 53 bd 80 21 5f bd c8 e5 ce bd
       0.07506439 -0.051602084 -0.054475307 -0.10102421
0000d0 5a 7b 43 3c ba 07 a6 bd ea f8 a7 3d a7 11 3f be
       0.011931265 -0.081069425 0.082017735 -0.18659078
0000e0 cc d3 15 3f 07 f1 9b bd 51 0a a7 bd 25 07 6f be
       0.585263 -0.07614332 -0.081562646 -0.23342569
0000f0 12 aa 7d bb c7 95 fe bd fc f4 af 3c a8 dc f9 3d
       -0.0038706106 -0.124309115 0.021479122 0.1220029
000100 79 38 43 bd 85 0f ab bd 41 98 32 bd 69 f3 c0 3c
       -0.04766128 -0.083525695 -0.043602232 0.023553567
000110 94 87 0e 3e 25 ac d3 bd c2 62 8a be a7 64 7b 3e
       0.13918906 -0.10335568 -0.2702847 0.24550115
000120 7c 01 a9 3e d0 9f b6 be 6b 3e 04 3d 5c f5 98 3d
       0.33008945 -0.35668802 0.03228609 0.074686736
000130 cf a4 8d be 43 b5 09 3d 08 be a8 3c b0 12 11 be
       -0.276648 0.03362013 0.020598426 -0.14167285
000140 e9 57 39 be 31 c6 76 be e3 99 38 bd 13 25 48 3d
       -0.18099941 -0.24099042 -0.045068633 0.04886348
000150 ca 9f 77 bd a1 86 a3 bd 2a a2 0c 3e 70 db 1b bd
       -0.06045512 -0.07984663 0.13733736 -0.03805107
000160 fe 98 22 bc 65 b0 94 bc ee a3 96 3e cb e3 4e bd
       -0.0099241715 -0.018150518 0.29421943 -0.05051021
000170 5b aa ef bb 46 56 7a 3d 83 92 c7 bc 59 fc 2b be
       -0.007314009 0.061117433 -0.024361854 -0.16795482
000180 30 bf b2 3d 54 1d 2f bc d6 8f 9b bc e0 ea 2b bd
       0.08727872 -0.010688145 -0.018989485 -0.04197204
000190 df 17 d3 3c c1 94 bf bd 51 7c 77 3d 8a 6f 66 be
       0.025768219 -0.093545444 0.06042129 -0.22503486
0001a0 ae 57 59 3c 04 9f e8 bd 0c 5a 0c bd 06 f9 85 bd
       0.013265533 -0.11358455 -0.034265563 -0.06541638
0001b0 94 98 83 be ad 47 94 bb 51 f0 df bc 59 5b 92 3e
       -0.25702345 -0.004525146 -0.027336271 0.28585318
0001c0 2b cb 87 be b5 c4 be be ff a4 0f bd 04 f0 62 3d
       -0.26522192 -0.3725945 -0.035069462 0.055404678
0001d0 22 39 b5 bd f2 68 12 3d 7e 01 04 3d 30 ca a3 3b
       -0.08848788 0.035744615 0.032227986 0.004998468
0001e0 92 df 63 3f b3 b4 12 3e bb dc d0 bd bb 48 42 3d
       0.89013016 0.14326744 -0.10198351 0.047432642
0001f0 97 1f f8 3d 91 71 09 3c 28 20 a5 3e 46 e5 bc 3d
       0.121154 0.008388893 0.32251096 0.09223418

weight f4 [128]
000000 77 2b f4 40 04 b3 f7 40 ac 63 04 41 43 4a f6 40
       7.630306 7.7406025 8.274334 7.696565
000010 6c eb f9 40 06 2f 9f 40 08 8c fd 40 63 81 f7 40
       7.809988 4.97449 7.9233437 7.7345443
000020 1d b9 17 41 ae 44 10 41 89 59 d6 40 f1 e3 f8 40
       9.482694 9.0167675 6.6984296 7.777825
000030 29 64 da 40 b7 4a a7 40 7e d2 15 41 35 7c cc 40
       6.8247266 5.2278705 9.36389 6.390162
000040 83 ae fb 40 f7 77 f9 40 8b 40 c9 40 26 17 00 41
       7.8650527 7.795894 6.289129 8.005651
000050 d6 e3 98 40 57 81 eb 40 dc 3c 44 40 46 5d a0 40
       4.777812 7.3595386 3.0662146 5.011386
000060 a2 2c b8 40 96 e5 07 41 15 4e eb 40 a7 c7 09 41
       5.7554483 8.493551 7.3532815 8.611243
000070 85 00 ab 40 cd 1d 9a 40 51 bb e2 40 02 19 1a 41
       5.3438134 4.816138 7.085366 9.631105
000080 3f 40 c6 40 40 45 dd 40 fe a9 d3 40 6f 0b 09 41
       6.1953425 6.9147034 6.614501 8.565291
000090 82 ed a2 40 fb ca 74 40 ee f9 a7 40 6e df f8 40
       5.0914927 3.824889 5.249259 7.777274
0000a0 35 5e 25 41 80 81 b2 40 b8 30 9f 40 d6 b8 06 41
       10.3355 5.578308 4.974697 8.420126
0000b0 d7 87 bf 40 26 d7 de 40 ca db b6 40 22 6a 9e 40
       5.985332 6.963763 5.7143297 4.9504557
0000c0 66 1e ed 40 fe d4 02 41 e7 73 0a 41 75 3a 8b 40
       7.4099607 8.177 8.653296 4.350886
0000d0 0e 49 e5 40 cd 01 9c 40 49 ba ab 40 35 99 c4 40
       7.165168 4.87522 5.36649 6.143702
0000e0 ef 32 48 41 14 60 df 40 66 7f 1d 41 33 70 17 41
       12.512435 6.9804783 9.843603 9.464892
0000f0 b9 24 04 41 c8 aa 11 41 64 1a 99 40 4a cd cd 40
       8.2589655 9.104195 4.7844715 6.4313097
000100 f8 0f e7 3f da ab 92 3f ee 9d 65 3f 44 fb 17 3f
       1.8051748 1.1458695 0.89694107 0.59367776
000110 27 f5 5a 40 e4 64 0d 40 39 64 3c 40 19 08 d1 3f
       3.421213 2.2092829 2.943617 1.6330596
000120 0e 84 fa 3e 65 ae c4 3e e2 df 31 40 0e d3 0e 40
       0.48928875 0.38414302 2.7792897 2.2316318
000130 0c df 40 3f 32 74 6f 3f 4f 43 8d 3f ee 12 66 3f
       0.7534034 0.93536675 1.1036166 0.89872634
000140 b6 77 ad 3f 03 34 9a 3f 76 1b 31 40 56 40 22 3f
       1.3552158 1.2047123 2.767301 0.6337942
000150 aa d9 84 40 98 c8 7b 3f 52 1f 05 40 f2 a2 48 3f
       4.1515703 0.98352957 2.0800366 0.78373635
000160 1a f4 b8 3f 6b 23 31 40 0b bb 07 40 e4 fa 7b 3f
       1.4449494 2.7677867 2.1207912 0.98429704
000170 ce 9c f0 3e 27 d4 0f 3f 59 14 c1 3f b9 28 2e 3f
       0.46994632 0.56183094 1.5084335 0.6803089
000180 7e 1e 08 3f 33 25 09 40 2b e5 f6 3f 73 ef 1a 40
       0.5317153 2.1428955 1.9288687 2.4208648
000190 02 a9 52 40 c0 62 32 40 5b c0 71 3f 94 78 0f 3f
       3.2915654 2.7872772 0.94434136 0.5604336
0001a0 4c c2 8e 3f ec d5 5c 3f b0 89 95 3f db 65 85 3f
       1.1153045 0.8626392 1.1682644 1.0421709
0001b0 c2 1f 23 40 a8 0e 50 40 b4 95 dd 3f 98 d8 20 40
       2.5488133 3.2508945 1.7311311 2.5132198
0001c0 5e 3a 8f 3f bd d5 54 3f 7a eb 07 3f c4 7e 07 40
       1.1189687 0.8313864 0.53093684 2.1171122
0001d0 65 d4 13 3f 04 6d f8 3f cd 87 00 40 1d 9c 15 40
       0.57745963 1.9408269 2.0082886 2.3376534
0001e0 e8 8e 7b 3f c6 19 38 40 2e 31 c5 3f c3 10 5d 3f
       0.9826493 2.876573 1.5405633 0.863537
0001f0 4b fb 78 3f 5a 4b 0d 3f 1c 25 c6 3f e9 e7 b0 3f
       0.9725844 0.551931 1.5480075 1.3820773

bias f4 [128]
000000 c2 c6 3c bf b8 56 e9 be 9b 78 94 3f ad c4 4d 3c
       -0.7374078 -0.45573974 1.1599306 0.012559098
000010 98 88 10 c0 d6 62 4f c0 ea ec e4 be 80 a2 57 bf
       -2.258337 -3.2404075 -0.44712 -0.8423233
000020 5f 42 87 3f 4b 70 4b 3f ad 75 46 be 43 76 28 bf
       1.056713 0.7946822 -0.19380827 -0.65805453
000030 06 b2 9c bf a0 7a 90 bd ab 9f 9e 3f b7 41 1e 3f
       -1.2241828 -0.07054639 1.2392477 0.6181902
000040 4f 9f 14 bc 60 69 0c 3f 5b 04 82 be 27 f4 f7 bf
       -0.009071185 0.5484829 -0.25393948 -1.9371384
000050 1e e0 29 bf 0d 4f 26 be 96 61 77 bf ee 3f 2f 40
       -0.663576 -0.16241093 -0.9663328 2.738277
000060 60 00 1c 3d 86 9b ea bd da c6 93 be 01 36 38 3f
       0.038086295 -0.11455445 -0.2886265 0.71957403
000070 fb 1a da 3f 43 4d d9 3f f9 6e ef bf 2d 5c 2a 3f
       1.7039484 1.6976703 -1.8705741 0.665469
000080 25 c4 2f 40 f0 72 ca 3c d0 a3 d7 3e 24 0a 46 be
       2.7463467 0.02471301 0.42117167 -0.19339806
000090 20 4a 1d bf 5c b8 8a bf b5 96 f1 3f ca 21 29 3f
       -0.6144123 -1.0837512 1.8874117 0.66067183
0000a0 9f ea 00 bf 6a bf 93 3f 4f 6e f8 3e 16 58 05 be
       -0.50358003 1.154279 0.4852166 -0.13021883
0000b0 a2 f5 14 bf 11 e5 9e 3f 6f 71 15 3f a8 bd 70 bf
       -0.58187306 1.2413656 0.5837621 -0.9403939
0000c0 15 20 cc bf bf 58 2e bf b1 b2 06 3f 3f ad 68 bf
       -1.5947291 -0.68104166 0.5261641 -0.9088935
0000d0 6c 4d 13 3f 55 31 9b 3f af 40 ca bf a7 53 5b be
       0.5754001 1.212443 -1.580099 -0.2141863
0000e0 74 e5 f1 be 6e 20 07 bf c8 e4 c4 bf 90 9f 35 3e
       -0.4724537 -0.5278386 -1.5382318 0.1773665
0000f0 fb 57 b0 3d 57 05 d5 3f 18 34 a2 3f 20 5c 4c bf
       0.08610531 1.6642255 1.2672148 -0.7982807
000100 5b 71 57 bf 2e 5c 72 3f 40 f8 09 3f 1b 6d b8 3f
       -0.8415734 0.94671905 0.53894424 1.4408296
000110 17 8c 41 bf 46 36 c0 bf 9c e1 5f bf 95 d8 9a bf
       -0.75604385 -1.5016563 -0.8745363 -1.2097346
000120 fe 98 b9 3f 42 78 23 40 9a 45 80 3e e0 74 ea be
       1.4499815 2.554215 0.25053102 -0.45792294
000130 36 85 c3 3f fe d5 26 3f 0b 66 2b 3f b6 b4 e0 3f
       1.5275028 0.65170276 0.6695258 1.7555149
000140 fe 52 62 bd 5d 2e fa 3e b1 f9 67 3e 0a f3 89 3f
       -0.05525493 0.48863497 0.22653843 1.0777295
000150 88 38 87 bf 9e 0a 39 3f 39 84 2d c0 86 e5 ad 3f
       -1.0564127 0.72281826 -2.7111952 1.358567
000160 a7 52 ed bf c6 f6 88 be d1 b2 80 3d fd 79 3b 3f
       -1.8540848 -0.26750773 0.062841065 0.73233014
000170 60 26 26 40 af 83 c9 3f 62 d7 16 c0 82 29 30 40
       2.5960922 1.5743312 -2.356896 2.7525334
000180 ea fe eb 3f 6d 6e 62 3f ae b8 86 bf 73 71 a8 3e
       1.8437169 0.88449746 -1.052511 0.32899055
000190 65 6a 05 bf f4 c1 f3 be a4 82 ab 3f 37 63 fb 3f
       -0.5211547 -0.47608912 1.3399243 1.9639653
0001a0 95 ee 9f 3f 53 21 18 3f 00 7f 3a 3f 1d 3b 94 3e
       1.2494684 0.5942585 0.72850037 0.2895135
0001b0 cd a1 c8 bf 9f 82 10 bf d7 cd a2 3f da 9b 11 c0
       -1.5674378 -0.5644931 1.2719067 -2.2751374
0001c0 05 35 aa 3f 7d bf f0 3e 54 18 51 3f bd 12 07 c0
       1.329743 0.47021094 0.81677747 -2.1105187
0001d0 67 0f 6d 3f 59 a4 97 3e 33 bf 10 c0 b6 54 1c bf
       0.9260163 0.29617575 -2.2616699 -0.6106676
0001e0 bb e0 1f be e5 c5 ca bf dc 1f 31 c0 9f 50 7d 3f
       -0.15613072 -1.5841643 -2.7675695 0.98951143
0001f0 d4 90 32 be fc a0 ea 3f cf 32 ba be 49 5f bb 3f
       -0.1743806 1.8330379 -0.3636689 1.4638454

running_mean f4 [128]
000000 4e 3b 8e be 75 8b a6 c0 63 6d 26 bf 68 dd 5b bf
       -0.2777962 -5.2045236 -0.6501066 -0.85884714
000010 48 4e 58 3f 72 0b ab 3f 53 8a 39 3f 2b 3d 74 3f
       0.8449445 1.3362868 0.7247669 0.95405835
000020 2b c2 ea 3f 31 81 85 c0 c7 3d d1 bd 3b b2 8c c0
       1.8340505 -4.1720204 -0.10216861 -4.3967566
000030 12 72 2c c0 fa cc 4a 40 9a c8 37 c0 56 c9 17 c0
       -2.6944623 3.1687608 -2.8716187 -2.3716636
000040 f2 47 f6 bf 8b 58 37 3f 40 9f 9a 3f c1 4f 7d 40
       -1.9240706 0.7161948 1.2079849 3.9579928
000050 52 e7 41 c0 84 16 b2 3f d7 8b 7e 3f cd f0 dd 3f
       -3.0297437 1.3913121 0.9943213 1.7339112
000060 73 a3 53 c0 ef 71 15 c0 83 e4 ac be 1d 54 8b 3f
       -3.3068511 -2.335079 -0.3376809 1.0885044
000070 43 57 2d 40 3d 6f 0f 40 17 de 99 3f 36 48 40 40
       2.708451 2.2411644 1.2020901 3.0044074
000080 e1 bb ec 3f 21 0e 2d 40 3a e3 27 40 06 1a b7 40
       1.8494836 2.7039874 2.6232438 5.7219267
000090 79 8f 60 3d a5 d8 60 c0 ea e8 81 c0 e1 9f b6 c0
       0.054824326 -3.513223 -4.059682 -5.7070165
0000a0 c8 ca 1f 40 07 13 c9 bb 73 d2 e1 3f 60 69 0c 40
       2.4967518 -0.0061363014 1.7642349 2.1939316
0000b0 85 8a 65 bd 3c 4c 0f bf c2 c7 df 3f d4 a6 12 3f
       -0.056040306 -0.559757 1.7482836 0.5728581
0000c0 1e f3 19 c0 23 d3 be bf 17 1a 15 40 c2 75 b3 be
       -2.4054637 -1.4908184 2.3297174 -0.3505078
0000d0 c9 1c 91 bf 4a fe 94 bf 6b b3 5a c0 aa 15 24 3f
       -1.133691 -1.1640103 -3.4172008 0.64095557
0000e0 79 61 6a bf a1 94 bc 3f b5 03 bb 40 52 a6 1d bf
       -0.9155498 1.4732858 5.8442025 -0.6158191
0000f0 fe a9 87 c0 9a db ea 3f 07 29 03 c0 c8 be 27 3d
       -4.239501 1.8348267 -2.049379 0.040953428
000100 d8 23 64 c0 c9 45 21 bf 30 01 d6 3e b1 29 81 bf
       -3.5646877 -0.6299711 0.4179778 -1.0090848
000110 96 91 0f c0 a8 b4 2a c0 0d f0 9e c0 83 e9 85 bf
       -2.2432609 -2.6672764 -4.966803 -1.0461887
000120 ff 16 83 3f ae c4 20 c0 1f 8b 72 bf 05 7d fd bf
       1.0241393 -2.5120044 -0.9474353 -1.9803778
000130 a5 48 56 c0 0d 8f 65 3f 35 42 45 bf 11 69 17 be
       -3.3481839 0.89671403 -0.7705415 -0.14786173
000140 3c d8 f3 be 5a 4d ae 3d 68 32 3a c0 68 84 df bf
       -0.4762591 0.085108474 -2.9093266 -1.7462282
000150 fc f3 44 c0 1e d1 73 be 14 09 92 c0 0d 27 2f c0
       -3.0773916 -0.2381024 -4.563608 -2.7367585
000160 fb 61 0d 3f 4c 4c d0 bf 20 9a 19 40 f6 28 8d c0
       0.5522763 -1.6273284 2.400032 -4.41125
000170 a7 50 75 3f 13 e7 ce 3e 53 19 a7 bf ad 0c 90 3f
       0.9582619 0.4041067 -1.3054603 1.1253868
000180 1e 06 96 c0 53 6f cf bf 3c c7 0d c0 05 81 3b c0
       -4.6882467 -1.6205848 -2.2152853 -2.9297497
000190 7e 03 26 bf a8 45 06 c0 03 92 a4 c0 c4 16 a9 c0
       -0.6484908 -2.0980015 -5.1428237 -5.284029
0001a0 dd 59 bc bf 69 bf 63 c0 f1 37 05 40 55 08 8d 3d
       -1.4714924 -3.5585577 2.0815394 0.06886355
0001b0 71 a2 33 3e 96 29 4e c0 5b 1a 87 bd 04 aa 12 c0
       0.17542435 -3.2212882 -0.06596824 -2.291627
0001c0 ff 1f ab c0 94 0c 27 c0 92 15 65 40 7b d0 9a c0
       -5.347656 -2.6101427 3.5794415 -4.8379493
0001d0 8f a1 32 c0 2f 6f 9f c0 bf 0c 36 c0 3e dd 84 c0
       -2.7911108 -4.982322 -2.844528 -4.152007
0001e0 39 e0 cd bf e1 0f 8b c0 20 7d f7 bf 2b 02 8a 40
       -1.6084052 -4.3456883 -1.933506 4.3127646
0001f0 03 d8 ef 3f 53 3a 16 c0 09 18 57 c0 8c 8d 33 c0
       1.8737797 -2.3473098 -3.360842 -2.8055143

running_var f4 [128]
000000 03 a5 3a 42 e8 66 18 42 3b db 1d 42 9d ab ee 41
       46.661144 38.100494 39.464092 29.833796
000010 34 df 48 42 51 d8 47 42 ba 37 b7 41 2d 7b ed 41
       50.21797 49.961246 22.90221 29.685144
000020 c0 5b 1a 42 1f 51 1a 42 24 dd e5 41 7e 6f c5 42
       38.5896 38.57922 28.732979 98.71776
000030 8a b3 2f 42 74 a8 86 42 e4 a7 25 42 fc c2 af 41
       43.92533 67.32901 41.413956 21.970207
000040 32 a5 b0 41 34 59 10 42 3a 17 f8 41 6a 4f 39 42
       22.080662 36.087112 31.011341 46.327553
000050 6a df f2 41 de f7 e7 41 72 a2 d3 41 9a 22 f6 41
       30.359089 28.996029 26.454319 30.766895
000060 5f 7f 73 42 88 c5 4e 42 bb 10 e8 41 30 5e 5a 42
       60.874386 51.6929 29.00817 54.59198
000070 ce 05 cf 41 44 42 c1 41 bd 63 23 42 c6 9c 65 42
       25.877834 24.157356 40.8474 57.4031
000080 f3 98 58 42 d8 ea f8 41 e9 0b 4b 42 fe f1 6e 42
       54.149364 31.11467 50.76163 59.73632
000090 35 77 11 42 5a 52 16 42 cb 09 c7 41 af 0c 72 42
       36.366413 37.58042 24.879782 60.512386
0000a0 7e 40 5c 42 db ca 92 41 e2 b7 55 42 95 06 da 41
       55.06298 18.34905 53.429573 27.253214
0000b0 98 91 ac 41 0e 76 b8 41 c7 1e 08 42 04 c9 d0 41
       21.57109 23.057644 34.030056 26.098152
0000c0 5d dd 1d 42 26 7d d0 41 f8 2b f0 41 b3 2c 1c 42
       39.466175 26.061108 30.02147 39.04365
0000d0 08 8e c6 41 bb 7f b6 41 6b 91 f5 41 de 0a 16 42
       24.819351 22.812368 30.696005 37.510612
0000e0 78 8d 09 42 78 82 c1 41 54 ee 56 42 2d b8 72 41
       34.388153 24.188705 53.732742 15.169965
0000f0 03 b9 4c 42 d7 a4 3c 42 72 46 e6 41 67 4e 2d 42
       51.180676 47.160976 28.784397 43.326565
000100 e1 03 8a 41 81 10 b7 41 36 9b b4 41 12 e2 ae 41
       17.251894 22.883059 22.575787 21.860386
000110 da bb 06 42 db a8 17 42 28 20 08 42 ad fe 91 41
       33.68345 37.914898 34.031403 18.249353
000120 78 eb f7 41 70 8d da 41 8e 6c eb 41 a1 4f 10 42
       30.989975 27.319061 29.428005 36.077763
000130 34 68 3b 42 e5 07 f9 41 4d ad a0 41 b7 80 a7 41
       46.85176 31.128855 20.08462 20.937849
000140 f1 07 a0 41 70 09 43 42 0e 49 d2 41 28 6a e4 41
       20.003878 48.759216 26.285671 28.551834
000150 0a 53 a4 41 0e 31 71 42 db b7 b8 41 f7 49 d1 41
       20.540546 60.297905 23.089773 26.161116
000160 c3 fb a1 41 f0 2b cf 41 fb d6 fa 41 34 5a 07 42
       20.24793 25.896454 31.35497 33.83809
000170 00 53 be 41 22 3b 09 42 e8 cf a5 41 db 8b be 41
       23.790527 34.307747 20.726517 23.818289
000180 26 b1 d9 41 e7 b7 15 42 12 87 ba 41 2c ed 4f 42
       27.211498 37.429592 23.315952 51.981613
000190 e7 c2 d8 41 78 e9 91 41 86 b2 12 42 9e 9e 2c 42
       27.095167 18.238998 36.67434 43.1549
0001a0 45 57 3e 42 d3 aa be 41 15 e2 9d 41 7b 83 94 41
       47.585224 23.83341 19.735392 18.5642
0001b0 e5 1b 9f 41 32 31 b5 41 f4 9f fd 41 ba da be 41
       19.88862 22.649021 31.703102 23.8568
0001c0 48 6b e3 41 2a 18 d5 41 2f 0a 12 42 d3 61 e1 41
       28.427383 26.636799 36.509945 28.172766
0001d0 48 16 e2 41 4a f5 0a 42 37 8a b8 41 65 20 d7 41
       28.26088 34.73954 23.067488 26.890818
0001e0 08 d9 1a 42 95 e9 c6 41 fd 61 64 41 39 92 77 42
       38.711945 24.864054 14.273923 61.892796
0001f0 99 eb 63 42 e1 52 c5 41 c0 a6 bc 41 3a 70 1c 42
       56.980076 24.665468 23.58142 39.109596

weight f4 [64]
000000 dd 7d 7f 3f 56 a4 5b 3f 26 6e 9e 3f 6d 22 7a 3f
       0.9980143 0.8579763 1.2377365 0.9770878
000010 28 1b 2c 3f fd 83 37 3f 6b f0 6b 3f f1 e6 17 3f
       0.6722894 0.71685773 0.92163724 0.59336764
000020 8a 4e 8e 3f ac f4 d6 3f ed c1 e6 3e f3 bd 7b 3f
       1.1117718 1.6793418 0.4506983 0.98336715
000030 3b 05 a6 3f 7c 47 2a 3f eb e4 21 3f 85 c1 82 3f
       1.2970346 0.66515326 0.63239926 1.0215307
000040 e7 da 4c 3f 59 b6 fd 3e ab 30 6b 3f 1b 20 59 3f
       0.8002152 0.49553183 0.91871136 0.84814614
000050 24 29 3b 3f 47 c3 80 3f fb b2 7e 3f b7 70 aa 3f
       0.7310965 1.0059594 0.9949185 1.3315648
000060 2e 86 4f 3f 96 f1 18 3f 76 b2 8a 3f 63 58 9b 3f
       0.81064117 0.5974363 1.0835712 1.2136348
000070 b6 4e be 3f cd 94 b1 3f 3b ae 42 3f 13 19 c8 3f
       1.4867771 1.3873535 0.76047105 1.5632652
000080 1f f1 96 3f 38 20 3b 3f 4c 2d 6f 3f 58 ea 90 3f
       1.1792334 0.73096037 0.9342849 1.1321516
000090 3f 02 15 3f 12 b5 1a 3f 8c 57 10 3f 5c 1b 81 3f
       0.5820655 0.6043254 0.56383586 1.0086474
0000a0 ad 21 91 3f e0 60 46 3f 8a 94 69 3f 94 39 39 3f
       1.1338402 0.7749157 0.9124228 0.7235348
0000b0 3d e1 24 3f 88 c1 69 3f 1b b1 a8 3f eb 94 64 3f
       0.64406186 0.9131093 1.3179048 0.8928973
0000c0 89 45 8f 3f d1 d8 48 3f 8e 56 80 3f 1b 2a 3b 3f
       1.1193095 0.78455836 1.0026414 0.7311112
0000d0 dd a2 89 3f 46 b5 68 3f 6b ec 8a 3f 17 c9 42 3f
       1.0752827 0.909016 1.0853399 0.7608809
0000e0 69 2d 87 3f f7 82 2d 3f 06 a0 5d 3f 06 7c 69 3f
       1.0560733 0.6777796 0.865723 0.9120487
0000f0 29 9a 97 3f 5e 10 78 3f eb dc 74 3f 3d c8 8b 3f
       1.1843921 0.96899974 0.95649594 1.0920483

bias f4 [64]
000000 b9 dc 9f bf 3e 5a bd be a0 ca bc be 5f 44 eb bf
       -1.2489234 -0.36982912 -0.3687334 -1.838024
000010 0d b2 04 bf d5 d4 a4 3e 58 99 94 bf 4b 65 f6 3e
       -0.51834184 0.32193628 -1.1609297 0.48124155
000020 ad ac 9f bf fe 43 ec bf 73 10 a2 3c 77 f1 34 3f
       -1.2474571 -1.845825 0.019783234 0.70680946
000030 0f 0c a1 bf 3b 09 8e 3e ea 8f 3f bf f6 31 9b bf
       -1.2581805 0.27741417 -0.7482897 -1.2124622
000040 a9 14 b5 bf 4b 33 99 bf e4 63 2a bf 0d 11 05 bf
       -1.414693 -1.1968778 -0.6655867 -0.5197914
000050 01 02 53 bf 32 2d bc be 40 b1 7a bf 3d 90 99 bf
       -0.8242493 -0.3675323 -0.9792671 -1.1997143
000060 6a 6f 6c bf 7e 1f 8a bf 92 97 bb be 57 42 08 bf
       -0.92357504 -1.0790861 -0.36639076 -0.53226227
000070 56 cb d8 bf 9c 40 b3 bf 3e 6a 05 be 37 b3 96 bf
       -1.6937053 -1.4004092 -0.1302881 -1.1773442
000080 d4 87 c6 bf 2d 9f 83 bf 59 46 05 3e 1f 95 54 3d
       -1.5510201 -1.0282952 0.13015117 0.051900025
000090 19 de 29 bf 73 87 a3 3e 91 36 09 bf 56 c2 9d bf
       -0.6635452 0.31939277 -0.53598887 -1.2324932
0000a0 89 3e 58 bf d0 c8 66 bf 48 f7 dd be 35 4d f6 be
       -0.8447042 -0.90150166 -0.43352723 -0.4810578
0000b0 2f 21 c6 bf 1e fa 2a bf 0f 9e 3d bf b3 a4 25 3f
       -1.5478877 -0.667879 -0.74069303 0.64704436
0000c0 ff ce 5a bf 0d 7b d3 bf 0c a3 37 be 17 73 10 bf
       -0.854721 -1.6521927 -0.17933291 -0.56425613
0000d0 35 5b d3 bf ce d6 a5 bf 5f a9 ec 3f f1 0e f4 bf
       -1.6512209 -1.2956178 1.8489188 -1.906706
0000e0 db cd d1 be e0 d2 0a bf a7 8b 09 bf a1 7a 52 bf
       -0.40977368 -0.5422802 -0.5372872 -0.82218367
0000f0 7c c0 83 bf 7a 8b a3 bf 6a 21 da bf 8b d4 8d bf
       -1.0293117 -1.277694 -1.7041447 -1.1080488

running_mean f4 [64]
000000 4e d9 24 40 e6 c5 f7 40 49 ba ea 40 7a 61 11 41
       2.5757632 7.7429075 7.33524 9.086298
000010 e1 70 aa 40 29 0b fe 3e 2a 13 b3 40 4b 54 3a 40
       5.326279 0.4961789 5.5960894 2.9113948
000020 61 85 0c 41 de b9 7d 41 4c c3 0e 41 b1 e0 60 40
       8.782563 15.857878 8.92268 3.513714
000030 fc d4 1a 41 20 50 12 41 e9 d9 b5 40 3a c1 39 41
       9.676998 9.144562 5.6828504 11.609674
000040 8a 94 be 40 54 ff cc 40 f2 c8 22 41 54 ac 08 41
       5.955632 6.406168 10.174059 8.542072
000050 a9 37 ce 40 60 1f 8e 40 17 8e b1 3f db 38 5f 41
       6.4442945 4.44133 1.3871487 13.951381
000060 a3 ed 00 40 b8 af 0f 41 91 9e b7 40 ed 3c 06 41
       2.0145042 8.9804 5.7381063 8.389874
000070 a7 8f 9e 41 3e 82 65 41 eb 05 ce 3e fa a5 a7 41
       19.820143 14.344297 0.4023889 20.956043
000080 61 80 7a 41 af 73 22 41 13 13 93 40 8d 2e 20 41
       15.6563425 10.153243 4.5960784 10.011365
000090 45 24 63 40 8f 06 b8 40 d5 3e 49 41 d6 9a 4b 41
       3.5490887 5.7508006 12.57784 12.725302
0000a0 21 4f 35 41 ee c8 0b 41 c8 7a df 40 cd 2d cf 40
       11.331819 8.736555 6.983738 6.474341
0000b0 55 09 19 40 50 1f 1b 41 2f 8f 62 41 24 1e 8f 40
       2.3911946 9.695145 14.159957 4.4724293
0000c0 a3 32 0e 41 d8 45 ce 40 52 21 0f 41 82 ba a7 3f
       8.8873625 6.446026 8.945635 1.3103793
0000d0 ea 6e f3 40 24 f8 0e 41 30 00 2d 40 e5 93 b4 40
       7.6072893 8.935581 2.7031364 5.6430535
0000e0 75 f3 3c 40 31 3e a4 40 78 f8 09 3f a0 3b 18 41
       2.9523594 5.1325917 0.5389476 9.514557
0000f0 cc 8c 55 40 cb 8f 39 41 02 70 e0 40 97 77 4a 41
       3.3367186 11.597606 7.013673 12.654197

running_var f4 [64]
000000 48 ea 66 41 3a 90 e2 42 7c 5a 12 42 7c 00 4f 42
       14.432198 113.28169 36.588364 51.750473
000010 f5 88 8f 42 7a 50 51 3f 44 e1 2d 43 5e cc d7 40
       71.767494 0.8176342 173.87994 6.743697
000020 f2 a3 75 42 ae 08 ad 42 33 76 92 42 70 1f 38 41
       61.410103 86.51695 73.23086 11.507675
000030 ce 36 9c 42 bb 4b b7 42 aa 24 a7 41 a0 5c 09 42
       78.10704 91.64791 20.892902 34.340454
000040 df 03 9c 41 07 16 c8 41 eb f4 be 43 1e c9 0c 42
       19.50189 25.010756 381.91342 35.196404
000050 9c ed fc 42 18 c8 9e 41 36 54 39 40 90 b3 85 42
       126.46408 19.847702 2.8957648 66.85071
000060 5a 10 9e 40 b0 fd 62 42 0d 29 e5 42 e9 e0 8d 42
       4.939496 56.74774 114.58018 70.93928
000070 08 34 74 42 e4 d5 23 42 9e 0d 1c 3f aa 6b bb 42
       61.05081 40.958878 0.6095828 93.71028
000080 c6 ff 1b 42 32 de 50 43 03 21 e0 41 36 b0 21 43
       38.99978 208.86795 28.016119 161.68832
000090 08 2a 1b 42 27 92 80 42 11 ce 9c 42 94 3d 82 42
       38.791046 64.28545 78.40247 65.12027
0000a0 3c 1a f0 42 89 c9 13 42 53 48 0e 42 26 1f 18 42
       120.05124 36.94681 35.57063 38.03042
0000b0 20 1d 18 41 f4 ac 03 43 9e 94 25 43 88 0a 56 42
       9.507111 131.6756 165.58054 53.510284
0000c0 b3 e3 d5 42 e2 cb 1a 42 11 1c fc 41 ba f6 e8 40
       106.944725 38.699104 31.513704 7.280118
0000d0 d6 2a 93 41 f2 a3 9a 42 b1 2f 27 41 cc f6 4a 42
       18.395916 77.320206 10.449143 50.741013
0000e0 8b 9c c2 40 21 51 23 42 eb 39 75 3e c4 93 db 41
       6.0816092 40.829227 0.23947875 27.447151
0000f0 79 8e a0 40 fc 96 5c 42 44 5d 92 42 fb b6 e7 42
       5.0173917 55.147446 73.18216 115.85738

weight f4 [128, 169]
000000 e4 c2 88 be ff 21 96 3f 8b fa 81 be 5e 2d 7b bf
       -0.2671119 1.1729125 -0.25386462 -0.981161
000010 e1 2b 49 3e e6 00 50 bf 8b 33 04 bf 24 d2 f7 3f
       0.19645645 -0.8125137 -0.5164115 1.9361005
000020 0c 00 66 3f 80 31 8d 3f 91 5f 79 bf 07 a5 89 bf
       0.8984382 1.1030731 -0.9741145 -1.0753487
000030 a8 5b ae bf fe 71 44 3f 6f a4 29 bd 7c f4 3f bd
       -1.3621721 0.7673644 -0.04141658 -0.046864018
000040 4f 5d 89 3e 6a e0 72 3f 46 e4 78 3e 60 51 13 3c
       0.26829 0.9487368 0.2430583 0.008991569
000050 c7 4a 92 3e ee c9 01 bd 09 4f 8d bf be d7 db be
       0.28572676 -0.031686716 -1.1039745 -0.42938036
000060 7a 79 31 bf 0c d3 71 bf 47 68 2f bf 1d 84 1d 3e
       -0.69325984 -0.94462657 -0.6851849 0.15382428
000070 10 ff d4 bf fc 6d 10 bf 9a 14 08 3f d6 0c 8a bf
       -1.6640339 -0.5641782 0.53156435 -1.0785167
000080 57 e3 5a 3f ec 70 0b 3f e6 a0 c7 3f 2c d8 7d 3c
       0.85503143 0.5446918 1.5595977 0.015493434
000090 7e 09 88 be f7 b3 5d 3f 50 87 7a bf f0 34 64 3d
       -0.26569742 0.8660273 -0.9786272 0.055714548
0000a0 75 91 01 40 1d 7f 73 3f cd d6 81 be 7c 8c e4 be
       2.024503 0.95115834 -0.25359192 -0.4463843
0000b0 06 af 1f bf eb 07 e2 3e b4 21 49 3e 63 38 f4 3e
       -0.6237644 0.44146666 0.19641763 0.4769927
0000c0 0e 7e 03 bf d7 a6 be 3e 80 a3 11 bd 58 5d 6a 3f
       -0.5136422 0.37236664 -0.035556316 0.9154868
0000d0 4a 6b ac 3d dc 7a 2a 40 ff ac 2b 3f 72 a4 0d bf
       0.08418901 2.6637487 0.67060846 -0.5532905
0000e0 4f 29 75 bf dc e3 23 bf b8 b5 62 bf cc 23 9d bd
       -0.95766157 -0.6401956 -0.8855853 -0.07672843
0000f0 c6 c4 25 3e df 32 84 3f f3 c8 12 be 31 5b ba 3f
       0.16188344 1.0328025 -0.14334469 1.455908
000100 39 54 3a bf d9 fa 26 3f 69 1b 2b 3f ad 0f d2 be
       -0.72784764 0.65226513 0.668387 -0.41027585
000110 2d b0 2a c0 f7 9b c3 3e 13 2e 3d bf e6 a0 b1 3f
       -2.667003 0.3820493 -0.7389843 1.3877227
000120 91 14 ab 3f 86 af fa 3f b2 ff e6 3f bf e6 21 3f
       1.3365651 1.9584816 1.8046782 0.63242716
000130 1a 44 82 3f 72 72 44 3f 16 04 94 3f 26 b9 b9 bc
       1.0177033 0.7673713 1.1563747 -0.022671293
000140 b4 6a 62 bf 71 bc 20 3e 4f 80 f6 3f aa cb b2 bc
       -0.88444066 0.15696885 1.9257907 -0.02182563
000150 f9 3b fc 3f 5f 9a 9c bf 59 8b d1 bf 8f ce 08 3f
       1.9705802 -1.223461 -1.637065 0.53440183
000160 9c a7 8f be 6c e1 20 3e d6 91 24 3e 19 0e 8f 3f
       -0.28057563 0.15710992 0.16071257 1.1176177
000170 9e 70 bf 3b 19 63 29 3f 66 23 c1 bf e0 6f 1c be
       0.0058422824 0.66166836 -1.5088928 -0.15277052
000180 34 c3 f3 be 47 ae 74 3f 94 ba f7 be 43 0f f3 3e
       -0.47609866 0.95578426 -0.48384535 0.4747258
000190 5f 29 8e be a8 c1 3f 3f c4 fc a1 3f 9f 72 a2 3f
       -0.2776594 0.7490487 1.2655263 1.269123
0001a0 88 95 8c bf 6e c1 0f 40 46 f6 2f bf db 17 e1 bf
       -1.0983133 2.246181 -0.6873516 -1.7585405
0001b0 b0 98 9c be 50 34 b5 bf f7 43 09 40 6a 02 15 c0
       -0.3058524 -1.415659 2.1447732 -2.3282723
0001c0 e5 b8 73 3f d5 40 aa be 1f 66 0d 3e b0 99 92 bf
       0.95204 -0.33252588 0.13808487 -1.1453152
0001d0 89 78 39 40 bc 14 75 3e 69 97 19 c0 b5 07 19 bf
       2.897982 0.23933691 -2.3998663 -0.59777385
0001e0 70 a4 ba bf 30 dc cf bd e2 fe a4 bf f4 42 b6 bf
       -1.4581432 -0.10149419 -1.2890284 -1.4239182
0001f0 13 f4 78 bf be f8 d6 bd 4b 7b a1 be ac 07 7a be
       -0.9724743 -0.104966626 -0.31539378 -0.24416989
000200 65 60 58 3c d0 e5 16 bd 62 e3 d0 3d ec c5 6f 3f
       0.013206576 -0.03684026 0.1019962 0.9366138
000210 91 3e 11 c0 39 22 0c c0 47 29 b2 bf c0 21 9a be
       -2.2694438 -2.1895888 -1.3918847 -0.30103874
000220 b0 a2 11 bf c3 8a a9 bd 1c fd 5b bc 38 b5 29 c0
       -0.56888866 -0.0827842 -0.013427045 -2.6516857
000230 96 27 1a c0 c2 d8 3f bf ae 22 2b 3e af 5e 52 3e
       -2.4086661 -0.7494012 0.16712448 0.20543931
000240 05 7b 4f 3d 11 74 a3 bf 59 3f ca 3f d5 52 c8 3f
       0.05065443 -1.2769796 1.5800582 1.5650278
000250 f4 73 ca 3f 92 a5 a9 3f 98 f8 0d 40 6a d7 51 40
       1.5816636 1.3253653 2.218298 3.2787728
000260 d5 5f 1b 40 3d cd 7c 40 2b 9b 3c 40 af 53 5a 40
       2.4277241 3.9500268 2.9469707 3.4113576
000270 05 b6 80 40 d0 5d 8b 40 19 7b 1e 40 77 83 86 3f
       4.022219 4.3552017 2.4762633 1.050887
000280 3a 61 62 bf ba 45 bf bf a4 88 9c bf ad 16 48 3e
       -0.88429606 -1.4943154 -1.22292 0.195399
000290 d7 56 98 3d 7f 97 02 3d 16 b8 ae bb ae 5d 90 bb
       0.074384384 0.03188276 -0.0053320033 -0.0044056987
0002a0 46 84 4c 3d b6 e9 8c 3c f8 68 2c bf a1 c3 4f bf
       0.049930833 0.017201286 -0.6734767 -0.8115788
0002b0 2c 68 ea 3c a6 94 e8 be c4 d4 83 3e 0c 00 e8 bd
       0.028614126 -0.4542591 0.25748265 -0.11328134
0002c0 c0 f9 32 3e 45 78 b4 bf 99 9b 7c be 0f 5a b7 3d
       0.17478085 -1.4099203 -0.24668731 0.08952724
0002d0 30 5f a0 be db b5 06 3f 7d a7 2a 3f 5f 05 0d 40
       -0.31322622 0.5262124 0.66661817 2.2034528
0002e0 a4 cb 56 3e 8e cc a2 be 6d 6f 2c bf ef d4 b6 3d
       0.2097612 -0.31796688 -0.6735752 0.089273326
0002f0 29 8c ad bf cd fb e7 bf 97 e6 82 bf 7e e8 3f bf
       -1.3558398 -1.8123719 -1.022662 -0.7496413
000300 de aa 24 3f e6 02 bf 3f c2 89 04 bf c9 09 a7 be
       0.6432322 1.492276 -0.517727 -0.32624653
000310 1e 7c f5 3f 29 b2 6b be a7 eb 4f 3f 8c a7 06 c0
       1.9178503 -0.23017181 0.8121895 -2.1039762
000320 49 c8 39 3f a8 ee 4b bf 28 da c6 bf d3 af 1f 3f
       0.72571236 -0.79661036 -1.5535326 0.6237766
000330 11 86 9a 3e 3c 93 4e c0 4f b5 60 3f d4 09 2d bd
       0.3018041 -3.2277365 0.87776655 -0.0422457
000340 4d e6 13 3f 94 cd 9c 3f 6d 96 0b 40 65 f2 97 3e
       0.57773286 1.2250237 2.1810563 0.2967712
000350 c1 a1 87 bf 6f 6d c8 3e ee 10 e0 3f cf 6f b1 bf
       -1.0596238 0.3914599 1.7505167 -1.3862246
000360 d3 5d d5 3e ca 82 62 3f c7 d0 a8 be 54 96 67 3f
       0.41673145 0.8848082 -0.32971784 0.9046376
000370 3b 9e 89 bf b5 0c ee 3c 4c cb 29 3f 0c 7e 38 bf
       -1.0751413 0.029058794 0.6632583 -0.7206733
000380 c1 e8 97 3d 2b 68 6c 3e ce 3f 0b 3f c6 36 90 3e
       0.07417441 0.23086612 0.54394233 0.2816679
000390 2e a1 d4 be 7d 68 a0 3e 60 39 08 be 14 97 07 c0
       -0.4152922 0.31329718 -0.13303137 -2.118596
0003a0 da 97 83 bf 5a da 09 be 8f a3 29 c0 9c 4d 2c be
       -1.0280716 -0.13462201 -2.6506078 -0.1682648
0003b0 06 0a 27 c0 96 66 4b be 15 39 11 3f 37 74 5c 3f
       -2.6099868 -0.19863352 0.56727725 0.8611483
0003c0 9d c0 f2 3f 73 0d be bf 08 9a f4 bf b6 bc 3b 3f
       1.8965031 -1.4847854 -1.9109507 0.73334825
0003d0 24 04 ad 3f 72 8c 6c bf 3d 0c 93 3e 24 3a 6b bf
       1.3516889 -0.924018 0.28720275 -0.9188559
0003e0 a7 26 8d 3f c3 96 a6 be 53 95 a0 be 3d 32 be bf
       1.1027421 -0.32536897 -0.31363925 -1.4859082
0003f0 a1 ff 83 be 1c 8f cb bf 9e 24 40 3f c1 b6 b8 3e
       -0.25780967 -1.5903049 0.75055873 0.3607693

bias f4 [128]
000000 5c ac f5 3b 1f 73 f0 3c 42 3f 6e 3d d4 89 43 be
       0.0074973535 0.029351769 0.058165796 -0.19095546
000010 78 d4 cb 3e 27 cd 4c bd 8b 8d 55 3d 83 29 f9 3e
       0.39810538 -0.050000336 0.05213694 0.48664483
000020 46 ec c7 3e 16 47 a7 be 97 6e 14 3e b6 13 00 3c
       0.3904745 -0.32671422 0.14495312 0.007817199
000030 cd 7d 8b c0 ad 2c 09 40 bf 46 39 3e fe 56 f8 c0
       -4.3591065 2.1433518 0.18093394 -7.760619
000040 2d 26 95 bc 1b be df 3c 86 b1 47 3f 0f 95 c9 3e
       -0.01820668 0.027312329 0.78005254 0.39371535
000050 cd c4 d7 be 34 a8 74 3d 16 1c d9 3d e4 60 0b bd
       -0.42142335 0.059730724 0.1060106 -0.03402795
000060 93 7b d0 3d 63 ff 96 be fb a6 09 3d 44 fc 3c 3f
       0.1017982 -0.2949172 0.03360651 0.73822427
000070 8e 36 2d be 53 7f 99 c0 7d 1a 1e bf 4d 54 11 3e
       -0.16915342 -4.7967925 -0.6175917 0.14192314
000080 ee d2 4b bd cf 32 28 bc 74 d4 b3 bd d4 9f 0b 3d
       -0.049761705 -0.01026602 -0.087807566 0.03408797
000090 b9 0e a7 bd d9 bb b1 3c c5 8c c7 bc be ad 8b bf
       -0.08157105 0.021696018 -0.024359116 -1.0912397
0000a0 d5 26 28 3e 81 8d 1b bd 77 da 6c 3d da 3a 82 3d
       0.16421063 -0.037976746 0.05782553 0.06358881
0000b0 af 99 16 c0 1f 63 9c bc 0f 7a 57 be f8 3e 86 3d
       -2.35313 -0.019090233 -0.21042655 0.06554979
0000c0 47 42 ab 3e 28 f0 35 3d 7b 7d dd 3d 68 a7 a4 bd
       0.33449003 0.044418484 0.10814949 -0.08039743
0000d0 69 24 26 be 1b 59 89 bf 07 38 26 be d7 08 90 be
       -0.16224827 -1.0730318 -0.1623231 -0.28131744
0000e0 35 fc b0 bc 60 91 77 bf 30 4f 8b 3e ac 54 8e 3f
       -0.021604637 -0.967062 0.27208853 1.111959
0000f0 55 96 bc 3d e6 a9 98 bc c2 0d d8 be 66 0d 01 3b
       0.09208361 -0.018635701 -0.42197996 0.0019691824
000100 0c 1a 3b 3e d1 70 c9 bd c2 77 5f 3d 9a 40 93 bd
       0.18271655 -0.09835971 0.05455757 -0.07190056
000110 7a 8d 85 3e 3b 79 ec 3d 69 9b 12 bd 53 df 38 3e
       0.260845 0.115465604 -0.035792742 0.18053941
000120 da b1 47 3c 6e 1c 83 be e4 06 8a bd 1a 1a b0 bc
       0.012188399 -0.25607628 -0.067395955 -0.021496821
000130 ca ad 4c c0 1b a1 90 3f 1b b6 e4 3d c7 4b 4d c0
       -3.1981072 1.1299165 0.11167546 -3.20775
000140 b5 2c 80 ba b2 d8 90 3c c4 25 0e 3f 09 f4 b1 3e
       -0.0009778949 0.017681453 0.55526376 0.34756497
000150 7b 6d 9e be 00 6a 8c bc 3b be 8e 3d 05 51 88 bb
       -0.30942902 -0.017140388 0.06969877 -0.004160049
000160 fb ae c4 3c a1 1e b6 3d 19 4b bd bc 4c ff b3 3e
       0.024009218 0.08892561 -0.023107098 0.35155714
000170 87 f9 4d be 0d cd 49 c0 20 16 0b bf 27 4a 1f 3e
       -0.20114718 -3.1531403 -0.54330635 0.1555563
000180 bf b6 be bd ba fe 9d bd 62 11 4e bd d0 4e 25 bd
       -0.093122 -0.07714601 -0.050309546 -0.040358365
000190 a8 f0 81 bd 11 5e a1 3c 23 2f 94 bd 4c 79 51 bf
       -0.0634473 0.019698175 -0.07235553 -0.8182571
0001a0 58 2f ff 3d d3 2b 8c bd 34 2b 3f bc 38 a6 dc bd
       0.12460202 -0.06844296 -0.011668015 -0.10773891
0001b0 62 4f 08 bf 55 a3 56 3d b5 cb 58 be f3 79 b3 bc
       -0.5324613 0.05240186 -0.21171458 -0.021908736
0001c0 81 ed af 3e 70 55 f9 3c 08 59 90 3e 98 67 67 be
       0.3436089 0.030436248 0.28192925 -0.22598112
0001d0 c0 da ac 3d c1 a8 33 bf b1 eb ba 3c fd e9 30 be
       0.08440161 -0.70179373 0.022817465 -0.1727676
0001e0 79 9b 96 bd 1b 8c 2f bf c9 ba 9d 3e 5c 62 47 3f
       -0.07353873 -0.6857316 0.30806568 0.7788446
0001f0 e9 1f 34 be 0d 02 77 3d 98 17 d0 bd d3 84 db bd
       -0.17590298 0.06030469 -0.1016075 -0.107186936
