model/model_pretrain.pth (torch_old, 528491 bytes, 41 tensors)

weight f4 [64, 92]
-0.25472984 0.013963696 0.06503745 -0.04204214 -0.2939702 -0.12004413 0.14753644 -0.3375414
-0.04575014 0.1226298 0.34892127 0.05387199 -0.29731476 0.072712384 -0.00030307448 -0.08057671
-0.03092592 0.090932116 -0.65641814 0.043540932 -0.37929615 0.01600289 0.117914364 -0.1717403
0.06347144 0.5285495 0.018337745 0.2623497 -0.071041174 -0.0626585 -0.09806748 0.11334963
-0.14490968 0.16481403 -0.054167595 0.046123464 -0.034244496 -0.106284335 0.10307764 -0.1381718
-0.09791624 -0.08890135 0.18649963 -0.13906518 0.004719992 -0.07152119 0.08671825 -0.22479916
-0.0695094 -0.064807065 -0.053082 0.09863561 -0.11106551 -0.040845692 0.17221704 -0.066141
0.06240053 0.058998775 -0.13471071 0.11451767 -0.043346375 -0.039691284 0.09339378 -0.12921682
-0.081335396 0.11261219 0.028987981 0.6341722 0.077971205 -0.099212416 0.11436647 -0.07041629
-0.07671428 -0.1509982 0.044390764 -0.3499637 -0.0141059905 0.07909329 -0.08902014 0.05707118
0.042109024 -0.22445849 0.13802963 -0.27753156 -0.28050187 -0.03211601 -0.0145705575 -0.14340541
0.45753235 0.07001609 -0.062383324 -0.03814567 0.027225608 0.049218655 0.11373878 0.22079502
0.039438047 -0.37713552 -0.029997386 -0.1090776 -0.22593634 0.114305496 0.17514274 -0.19046359
-0.07075281 0.11860633 -0.12183644 0.16730689 -0.03869502 0.06676846 -0.4810419 0.04536693
0.037018728 0.028978657 -0.1700789 -0.012762086 -0.113962196 -0.22134006 -0.086924694 -0.25028682
-0.13195556 0.17007227 -0.1736447 -0.30165458 -0.28172207 0.14878117 0.16331017 -0.037268694
0.17216492 0.10004403 -0.0651092 -0.07895804 -0.14705081 0.040269565 0.05423565 -0.37480322
-0.1009398 0.3919397 -0.10768585 0.084632754 0.008580256 0.0029011273 0.116830565 0.096268974
-0.018913366 -0.19068867 -0.022611577 -0.34352985 -0.06973657 0.22975211 -0.037126016 0.110612296
-0.0020836878 0.019578127 -0.14415786 -0.14403799 -0.1301108 0.037239615 0.07648105 -0.36364144
0.02236014 0.06083498 -0.08497908 0.07865525 0.025536234 -0.01382339 -0.046331722 0.40185237
-0.016833074 0.0114739705 0.0013275237 -0.006706506 -0.16194353 -0.07914997 -0.021469828 0.28536716
0.34486595 0.14938486 -0.35741222 -0.1089537 0.65378135 -0.24575554 -0.1083037 -0.054660924
0.0027049824 -0.05602745 0.06197153 -0.125962 -0.4426687 -0.2324517 -0.02315672 -0.10598031
-0.10097733 0.18700905 0.01876898 -0.03888096 -0.028201522 -0.2371155 0.2934275 0.16385572
-0.07479208 0.13553347 -0.06803856 -0.08754279 0.04066453 0.14757991 -0.43892622 -0.036360282
0.14320682 0.19931772 0.04517722 0.074833594 -0.010143283 0.1278331 -0.03764712 -0.012355515
0.10515045 0.07906043 -0.04256645 -0.024053931 0.02343685 -0.095060855 0.095903754 0.079713225
0.011424228 0.1982295 -0.011569358 0.107275315 -0.13989723 -0.24984527 0.033302873 0.01663003
-0.12560204 -0.07701149 0.07160223 -0.029023476 0.10873306 -0.049268477 0.13831481 0.17990652
-0.14530753 -0.08028262 -0.11272464 -0.08012521 0.04062062 0.0054693543 0.14890902 -0.1803119
-0.06438575 0.111262694 -0.022665098 0.5481452 -0.44496843 -0.063220315 0.08992495 0.023938842
00000000: f36b 82be fcc7 643c 5b32 853d 6134 2cbd
00000010: 4383 96be b2d9 f5bd cb13 173e 3ad2 acbe
00000020: 8064 3bbd 5525 fb3d cfa5 b23e e0a8 5c3d
00000030: a439 98be 3bea 943d f8e5 9eb9 6705 a5bd
00000040: 5b58 fdbc 9e3a ba3d 050b 28bf fa57 323d
00000050: 1b33 c2be 7e18 833c 167d f13d b0dc 2fbe
00000060: 50fd 813d 054f 073f 0a39 963c b352 863e
00000070: 097e 91bd 1a53 80bd 9ad7 c8bd da23 e83d
00000080: 3463 14be 02c5 283e d7de 5dbd f5eb 3c3d
00000090: f543 0cbd 9aab d9bd 5f1a d33d e97c 0dbe
000000a0: 4f88 c8bd e911 b6bd c2f9 3e3e 1a67 0ebe
000000b0: 2aaa 9a3b b479 92bd 5699 b13d c031 66be
000000c0: f25a 8ebd 91b9 84bd 836c 59bd 7701 ca3d
000000d0: 5076 e3bd d04d 27bd aa59 303e ef74 87bd
000000e0: b397 7f3d b3a8 713d 9bf1 09be 3d88 ea3d
000000f0: f88b 31bd 5493 22bd 3d45 bf3d 6a51 04be
00000100: 2c93 a6bd 38a1 e63d 3478 ed3c 1c59 223f
00000110: 5eaf 9f3d e12f cbbd f838 ea3d 6a36 90bd
00000120: 601c 9dbd 469f 1abe 17d3 353d 712e b3be
00000130: d01c 67bc aafb a13d 3150 b6bd 78c3 693d
00000140: 837a 2c3d 72d8 65be a457 0d3e 9e18 8ebe
00000150: f19d 8fbe 148c 03bd 59b9 6ebc ded8 12be
00000160: ae41 ea3e 9964 8f3d a885 7fbd a23e 1cbd
00000170: 3d08 df3c 8099 493d e1ef e83d 1718 623e
00000180: ca89 213d e817 c1be 14bd f5bc 1464 dfbd
00000190: db5b 67be 0019 ea3d 9e58 333e e308 43be
000001a0: d9e6 90bd e0e7 f23d 6285 f9bd 7f52 2b3e
000001b0: ab7e 1ebd e7bd 883d 204b f6be add2 393d
000001c0: f3a0 173d a664 ed3c 2a29 2ebe 1118 51bc
000001d0: 0365 e9bd f8a6 62be 9305 b2bd 9825 80be
000001e0: 5c1f 07be 6d27 2e3e ebcf 31be 7872 9abe
000001f0: e03d 90be 175a 183e c83a 273e 0fa7 18bd
00000200: 004c 303e e2e3 cc3d f957 85bd c1b4 a1bd
00000210: 7d94 16be b3f1 243d 3326 5e3d 35e6 bfbe
00000220: 87b9 cebd 52ac c83e 668a dcbd f053 ad3d
00000230: 3494 0c3c d720 3e3b dd44 ef3d ab28 c53d
00000240: 34f0 9abc e443 43be ea3b b9bc 25e3 afbe
00000250: 0cd2 8ebd 2344 6b3e 7311 18bd b388 e23d
00000260: 7b8e 08bb 4f62 a03c 1e9e 13be b27e 13be
00000270: c43b 05be 9188 183d 19a2 9c3d 362f babe
00000280: 9d2c b73c 1a2e 793d 8309 aebd 0116 a13d
00000290: 5d31 d13c 807b 62bc 55c6 3dbd 98bf cd3e
000002a0: 84e5 89bc 52fd 3b3c 4e00 ae3a 40c2 dbbb
000002b0: 86d4 25be 6119 a2bd 7ee1 afbc a51b 923e
000002c0: 4592 b03e 58f8 183e bcfe b6be 1e23 dfbd
000002d0: 375e 273f 57a7 7bbe 55ce ddbd 22e4 5fbd
000002e0: 1346 313b 0a7d 65bd dcd5 7d3d 2ffc 00be
000002f0: 79a5 e2be d207 6ebe 29b3 bdbc 340c d9bd
00000300: 34cd cebd 4d7f 3f3e 67c1 993c a441 1fbd
00000310: e106 e7bc 68ce 72be 213c 963e cbc9 273e
00000320: 972c 99bd 49c9 0a3e cd57 8bbd a249 b3bd
00000330: da8f 263d 301f 173e f0ba e0be 85ee 14bd
00000340: cfa4 123e f219 4c3e c00b 393d 5b42 993d
00000350: 0330 26bc aee6 023e de33 1abd c96e 4abc
00000360: 1e59 d73d 6fea a13d 285a 2ebd c00c c5bc
00000370: a3fe bf3c 44af c2bd 3069 c43d b040 a33d
00000380: af2c 3b3c adfc 4a3e 688d 3dbc 29b3 db3d
00000390: 3841 0fbe 70d7 7fbe 9868 083d b33b 883c
000003a0: d29d 00be 33b8 9dbd 31a4 923d a4c2 edbc
000003b0: 70af de3d becd 49bd 66a2 0d3e 6a39 383e
000003c0: 7fcb 14be 376b a4bd 2ddc e6bd b018 a4bd
000003d0: cf61 263d 4538 b33b 9b7b 183e afa3 38be
000003e0: addc 83bd b2dd e33d 28ac b9bc 3e53 0c3f
000003f0: e7d2 e3be a779 81bd 922a b83d 641b c43c

weight f4 [128, 169]
0.05104355 0.020775907 -0.29525337 -0.15431401 -0.36034834 0.11232363 -0.083561875 -0.065816306
-0.12970956 -0.020494005 0.32979795 -0.23946376 0.34218076 0.21404879 -0.32485133 0.41318643
-0.37783593 -0.02047431 -6.813155e-05 -0.649984 -0.1556973 0.12562937 -0.019650873 -0.04573197
-0.23235635 0.07314133 -0.016764604 0.33189702 -0.01796143 -0.3071342 0.2001377 -0.15477905
-0.07815446 0.2632775 0.0034579427 0.10743554 -0.1377291 0.4667662 0.09699432 -0.07157022
0.05494378 -0.39003763 -0.045179043 0.13676324 0.15393646 0.38675678 0.014809939 -0.43065506
0.35649842 -0.12370831 -0.15406625 -0.18940729 0.19061525 0.32893783 -0.20344341 0.36840102
-0.07135791 -0.08681248 -0.15205653 0.039484188 0.44838136 -0.36392522 0.30036876 0.05696009
0.069265164 -0.10423511 -0.07685085 -0.022055216 -0.1614421 -0.18014233 -0.023511956 0.40403232
0.16912554 -0.14145462 0.011822005 -0.15018606 -0.395668 -0.44502604 0.13620372 -0.021524569
-0.14966829 0.04619366 0.5689748 0.086018726 0.086374514 -0.11592793 -0.14070266 0.534388
0.26779726 -0.44901624 -0.07514373 -0.3303895 -0.17736782 -0.18820278 0.07760156 0.18871348
-0.049507044 -0.3744608 -0.03524636 0.021627227 0.16830024 0.22059983 0.102757856 -0.21151003
-0.20002235 0.094977364 0.09271282 0.28153193 0.003915703 -0.07272369 -0.08698147 0.09345086
0.025987864 0.08684423 -0.07347175 0.31979302 0.06733418 -0.2545266 0.1936021 0.29137558
-0.4931237 0.07247301 -0.41316307 -0.2792863 0.3124135 -0.049748417 0.012695983 -0.3706849
-0.009133108 -0.02278374 -0.26473573 -0.76812565 -0.9489572 -0.6904666 0.26343372 0.042821597
0.24149673 0.19921139 -0.24090564 -0.811739 -0.3769652 -0.4236163 -0.6990197 0.39622667
0.6133049 0.007842149 0.30256608 0.8275102 0.223618 -1.1991783 0.3611072 0.01672845
-0.4492176 0.62613064 1.7063034 0.19757414 -1.3985393 -0.8669083 0.21720913 0.4689749
1.6604522 2.12805 2.2565854 0.47439593 -0.12664728 -0.042139366 0.015547142 0.04191862
-0.052080322 -0.018287903 -0.29605752 -0.01645419 -0.012682695 -0.047754224 -0.058655582 -0.009519402
-0.018782267 -0.09268749 -0.2721653 0.15287678 0.012661494 0.29256028 -0.42907187 0.15588954
-0.05771503 0.055302564 -0.27067822 0.00642869 0.27267352 0.09024998 0.04360424 -0.03753892
0.20067854 -0.28615323 0.3556462 0.26215395 0.2661756 -0.30588293 -0.1782094 -0.20847584
0.10136687 -0.11933265 0.007584111 0.00070074934 -0.045609508 0.2444626 -0.4606084 0.07896658
-0.13803048 0.2910589 -0.1414359 -0.24501477 0.115878835 0.1024099 0.10397216 -0.02629673
0.06496352 -0.11474518 0.15366022 -0.11586119 -0.27429262 -0.13906732 -0.071072906 -0.16457185
0.24785288 0.56853676 -0.23053162 0.047376126 -0.07666958 0.30744785 -0.014144509 -0.036021326
-0.10864038 0.02953737 0.12291794 -0.32352662 0.13877659 0.017530967 0.11582175 0.054520532
-0.016030634 0.12532964 0.06445754 0.010566928 0.021820186 -0.20101474 0.2759689 0.01329455
0.09845471 0.22476062 -0.0031980718 -0.30735013 0.20237276 -0.013796737 0.0942983 -0.06757009
00000000: 0b13 513d 3c32 aa3c 732b 97be 7e04 1ebe
00000010: 947f b8be ee09 e63d 7d22 abbd b3ca 86bd
00000020: 95d2 04be 0be3 a7bc 47db a83e fd35 75be
00000030: 5132 af3e 9b2f 5b3e ea52 a6be 2c8d d33e
00000040: b673 c1be bdb9 a7bc d9e1 8eb8 5a65 26bf
00000050: 1d6f 1fbe fca4 003e defa a0bc 7251 3bbd
00000060: d3ee 6dbe 1fcb 953d ec55 89bc 68ee a93e
00000070: d923 93bc b240 9dbe e6f0 4c3e 667e 1ebe
00000080: 720f a0bd 4fcc 863e a79e 623b 2a07 dc3d
00000090: db08 0dbe fbfb ee3e f5a4 c63d 6893 92bd
000000a0: bb0c 613d 03b3 c7be a90d 39bd aa0b 0c3e
000000b0: 85a1 1d3e fc04 c63e 63a5 723c d27e dcbe
000000c0: f686 b63e c85a fdbd 8bc3 1dbe fcf3 41be
000000d0: a530 433e 8a6a a83e 7853 50be 0f9f bc3e
000000e0: 1924 92bd beca b1bd b5b4 1bbe 2cba 213d
000000f0: 3e92 e53e 6854 babe efc9 993e fc4e 693d
00000100: e5da 8d3d 3879 d5bd fa63 9dbd 24ad b4bc
00000110: 1451 25be 3b77 38be 259c c0bc 53dd ce3e
00000120: 3f2f 2d3e 7bd9 10be 15b1 413c 60ca 19be
00000130: ff94 cabe 74da e3be fd78 0b3e 4b54 b0bc
00000140: a542 19be 9035 3d3d 55a8 113f 962a b03d
00000150: 1fe5 b03d 9f6b edbd 5c14 10be a7cd 083f
00000160: b91c 893e 75e5 e5be f5e4 99bd d028 a9be
00000170: e99f 35be 3bb8 40be 91ed 9e3d 1b3e 413e
00000180: e6c7 4abd 53b9 bfbe 7d5e 10bd 952b b13c
00000190: e656 2c3e ece4 613e b672 d23d 1696 58be
000001a0: a9d2 4cbe 7e83 c23d 38e0 bd3d f424 903e
000001b0: 4c4f 803b 28f0 94bd 5723 b2bd 2a63 bf3d
000001c0: 80e4 d43c 63db b13d 5b78 96bd e9bb a33e
000001d0: 81e6 893d 4f51 82be a13f 463e 2e2f 953e
000001e0: b67a fcbe bb6c 943d 1c8a d3be 9dfe 8ebe
000001f0: aaf4 9f3e ffc4 4bbd d002 503c 69ca bdbe
00000200: 08a3 15bc f7a4 babc 718b 87be e2a3 44bf
00000210: dcee 72bf 6bc2 30bf c9e0 863e b365 2f3d
00000220: eb4a 773e 12fe 4b3e f8af 76be 21ce 4fbf
00000230: 9501 c1be 3ce4 d8be f4f2 32bf 39de ca3e
00000240: 8d01 1d3f 5b7c 003c f1e9 9a3e b5d7 533f
00000250: 1efc 643e ad7e 99bf 0be3 b83e 1a0a 893c
00000260: d9ff e5be 194a 203f 2668 da3f e050 4a3e
00000270: 5603 b3bf b4ed 5dbf 126c 5e3e 7a1d f03e
00000280: b389 d43f f931 0840 e56b 1040 06e4 f23e
00000290: d3af 01be 549a 2cbd 71b9 7e3c dcb2 2b3d
000002a0: 2d52 55bd 83d0 95bc da94 97be f0ca 86bc
000002b0: 14cb 4fbc ef99 43bd d640 70bd 44f7 1bbc
000002c0: 45dd 99bc f0d2 bdbd 4059 8bbe bb8b 1c3e
000002d0: 2872 4f3c 76ca 953e 4faf dbbe 82a1 1f3e
000002e0: 9866 6cbd f184 623d 5696 8abe c3a7 d23b
000002f0: dd9b 8b3e fbd4 b83d 5c9a 323d 69c2 19bd
00000300: ad7e 4d3e ad82 92be 4217 b63e 0b39 863e
00000310: 2b48 883e b09c 9cbe 867c 36be b17a 55be
00000320: 6f99 cf3d ad64 f4bd 2284 f83b 7eb2 373a
00000330: 09d1 3abd 6754 7a3e ddd4 ebbe 3bb9 a13d
00000340: dd57 0dbe ac05 953e 93d4 10be 27e5 7abe
00000350: e251 ed3d 48bc d13d 5bef d43d 3d6c d7bc
00000360: 980b 853d 85ff eabd 1b59 1d3e a248 edbd
00000370: 1570 8cbe aa67 0ebe ac8e 91bd 8685 28be
00000380: 25cd 7d3e a08b 113f 7b10 6cbe 780d 423d
00000390: f104 9dbd ce69 9d3e 5fbe 67bc 198b 13bd
000003a0: d97e debd 5bf8 f13c 67bc fb3d 48a5 a5be
000003b0: 731b 0e3e 1a9d 8f3c f433 ed3d ec50 5f3d
000003c0: ad52 83bc 6a56 003e 5102 843d e920 2d3c
000003d0: 3fc0 b23c cfd6 4dbe cc4b 8d3e 62d1 593c
000003e0: 9fa2 c93d a627 663e be96 51bb ff5c 9dbe
000003f0: ce3a 4f3e b60b 62bc 781f c13d 3062 8abd

bias f4 [128]
0.0011932565 -0.012958485 -0.060357466 0.11234604 0.10421991 0.06308428 -0.09689446 -0.0066348175
0.12032488 -0.041229513 -0.07813426 0.204413 0.08814652 0.16104929 0.09592085 -0.1821509
0.07488748 -0.023050288 -0.0104499 0.14319086 -0.11036516 -0.13683805 0.01952868 0.021816975
-0.1920221 -0.028019251 0.30522287 0.09659464 -0.052595627 0.16332583 0.046414807 -0.011619028
-0.15280274 -0.047190115 0.047492154 -0.036957316 -0.18401834 0.124969915 0.023769816 -0.12708479
-0.00011190893 -0.15290062 0.08946635 -0.13797894 -0.36571717 0.008253787 0.0050504813 0.31213638
0.04960057 -0.045941617 -0.013737584 -0.085629955 0.016836358 -0.094719976 0.01812778 -0.13933031
0.18484688 -0.06659935 0.0683228 -0.30954418 0.023095269 -0.11251685 -0.013269476 0.08199113
-0.083227865 -0.098691605 -0.050314795 0.036080893 0.100307666 -0.011405959 -0.29864216 0.25809932
0.34866908 -0.36260825 0.013110381 0.015626011 -0.29559857 0.037359055 0.054380175 -0.0755551
-0.18201512 -0.23858458 -0.061488084 0.11312076 -0.15118103 -0.0434291 0.10976668 -0.04856624
-0.028302098 0.041113235 0.30365977 -0.06663612 -0.012061447 0.04341424 -0.015108301 -0.16656451
0.09114671 -0.011761055 -0.11098335 -0.03123107 0.015216862 -0.11594775 0.06387436 -0.22886257
0.0028718088 -0.10305759 -0.091992915 -0.015077799 -0.28914943 0.0077606877 -0.042745885 0.26442495
-0.2986103 -0.397225 -0.0678332 0.10402438 -0.10774151 0.026074462 -0.05265346 0.016592478
0.39324453 0.10448797 -0.012891125 0.010311187 0.034788482 0.003943508 0.21118484 0.08135908
00000000: 0b67 9c3a d34f 54bc 6439 77bd ae15 e63d
00000010: 4071 d53d 5532 813d 9a70 c6bd e268 d9bb
00000020: e46c f63d 47e0 28bd db04 a0bd a451 513e
00000030: 2a86 b43d 1bea 243e 2772 c43d c485 3abe
00000040: 9b5e 993d f5d3 bcbc 0f36 2bbc a0a0 123e
00000050: 2107 e2bd 461f 0cbe 9cfa 9f3c 83b9 b23c
00000060: 71a1 44be a188 e5bc 2c46 9c3e 69d3 c53d
00000070: 836e 57bd e33e 273e 741d 3e3d bc5d 3ebc
00000080: 5278 1cbe 6c4a 41bd 2287 423d 8e60 17bd
00000090: 4e6f 3cbe 3af0 ff3d ebb8 c23c 8422 02be
000000a0: a6b0 eab8 fb91 1cbe 223a b73d 5a4a 0dbe
000000b0: 483f bbbe e43a 073c 827e a53b 57d0 9f3e
000000c0: f829 4b3d 472d 3cbd 9b13 61bc c25e afbd
000000d0: 67ec 893c 8cfc c1bd b680 943c 9bac 0ebe
000000e0: 8048 3d3e 3d65 88bd d3ec 8b3d 937c 9ebe
000000f0: 4a32 bd3c 3c6f e6bd 3768 59bc f7ea a73d
00000100: 5f73 aabd d31e cabd e316 4ebd 8fc9 133d
00000110: 1b6e cd3d 0fe0 3abc a0e7 98be 9825 843e
00000120: c184 b23e caa7 b9be eccc 563c 1f02 803c
00000130: b258 97be cf05 193d bfbd 5e3d a2bc 9abd
00000140: 2c62 3abe 844f 74be eeda 7bbd dbab e73d
00000150: 33cf 1abe b6e2 31bd 5acd e03d 65ed 46bd
00000160: cdd9 e7bc 5a66 283d 4b79 9b3e 8578 88bd
00000170: 609d 45bc 21d3 313d cf88 77bc e38f 2abe
00000180: 20ab ba3d 71b1 40bc 3d4b e3bd 4dd8 ffbc
00000190: 2550 793c 0476 edbd 8fd0 823d f35a 6abe
000001a0: f534 3c3b dc0f d3bd c866 bcbd df08 77bc
000001b0: 650b 94be 5e4d fe3b 4f16 2fbd b562 873e
000001c0: 73e3 98be 1361 cbbe 22ec 8abd bc0a d53d
000001d0: 95a7 dcbd 1c9a d53c 28ab 57bd f3ec 873c
000001e0: 5957 c93e cafd d53d 4c35 53bc 41f0 283c
000001f0: 5e7e 0e3d 8b38 813b d740 583e 979f a63d

weight f4 [128]
3.7435453 2.9700294 2.9924073 3.0658169 3.0357852 2.9598715 2.4672687 2.689467
5.4725447 2.1428833 2.6339831 3.79896 3.410534 1.8494139 3.665884 6.284093
4.5807705 2.8291352 2.1734319 4.1859484 3.0874863 3.7256663 3.113869 3.2660148
2.216683 2.701877 4.426268 2.68566 2.272833 2.9053276 3.084367 2.8362699
3.0197773 2.7407727 3.8761055 3.1535463 3.2187915 2.046424 2.0457208 3.731579
3.2836056 2.1962748 2.5754423 3.964883 5.2028003 3.4327552 2.6591992 1.6809928
3.016381 4.207974 2.5274816 2.16171 2.7888944 1.8845708 2.9929535 1.7276636
6.1653748 2.5240083 3.600378 2.8590279 3.7571015 4.3670664 2.9450905 3.2856784
1.459806 0.63259804 0.7168471 0.54956114 0.97631615 1.6829473 1.7088308 1.7532547
0.68532336 0.5935018 1.1019157 1.4724369 1.0324028 0.9438046 1.223077 1.2438278
0.74381614 0.89244545 1.0426818 1.0414714 3.113285 0.97718984 1.1479057 0.5483851
0.59347355 0.6290962 1.5418617 0.47226146 0.47696978 0.21878637 0.8589235 1.0102879
1.0698994 1.4450216 0.7446621 1.0918646 1.8889332 0.78033316 0.4892268 0.9430086
1.6010818 1.3459262 0.5387063 0.8509299 1.2666066 1.0406795 1.3044132 1.4380846
0.74833375 0.81115335 1.045548 1.6293249 0.8566444 0.95605224 1.1854095 1.6902041
0.95463175 1.5494471 1.4345684 0.9420514 0.93901646 0.72781986 0.9045753 0.82051307
00000000: 3f96 6f40 f614 3e40 9a83 3f40 5836 4440
00000010: 4e4a 4240 896e 3d40 bbe7 1d40 3a20 2c40
00000020: 161f af40 0025 0940 2e93 2840 2922 7340
00000030: 3046 5a40 98b9 ec3f d89d 6a40 4a17 c940
00000040: ac95 9240 8d10 3540 8219 0b40 4af3 8540
00000050: 6099 4540 5171 6e40 a149 4740 6306 5140
00000060: 22de 0d40 8eeb 2c40 fda3 8d40 dae1 2b40
00000070: 1976 1140 e3f0 3940 4566 4540 7285 3540
00000080: 0844 4140 d268 2f40 1d12 7840 b4d3 4940
00000090: ae00 4e40 9cf8 0240 17ed 0240 31d2 6e40
000000a0: 9826 5240 c48f 0c40 0cd4 2440 a5c0 7d40
000000b0: 577d a640 43b2 5b40 5230 2a40 c62a d73f
000000c0: 630c 4140 b9a7 8640 42c2 2140 7559 0a40
000000d0: 3f7d 3240 9e39 f13f 8d8c 3f40 1524 dd3f
000000e0: c04a c540 5a89 2140 986c 6640 50fa 3640
000000f0: 5a74 7040 02bf 8b40 5d7c 3c40 8e48 5240
00000100: ecda ba3f f2f1 213f 4b83 373f 0ab0 0c3f
00000110: dbef 793f d16a d73f f8ba da3f a66a e03f
00000120: 5a71 2f3f bcef 173f 930b 8d3f d078 bc3f
00000130: c625 843f 2e9d 713f ca8d 9c3f c035 9f3f
00000140: bc6a 3e3f 4e77 643f 9976 853f ef4e 853f
00000150: 1040 4740 1d29 7a3f 93ee 923f f762 0c3f
00000160: e2ed 173f 730c 213f b95b c53f 41cc f13e
00000170: 6235 f43e 8909 603e 69e2 5b3f 1d51 813f
00000180: 77f2 883f 78f6 b83f 2da2 3e3f 38c2 8b3f
00000190: 90c8 f13f eac3 473f ef7b fa3e 0369 713f
000001a0: 40f0 cc3f 4f47 ac3f a8e8 093f 8bd6 593f
000001b0: 2a20 a23f fc34 853f 03f7 a63f 2813 b83f
000001c0: cd92 3f3f bfa7 4f3f 84d4 853f b88d d03f
000001d0: 0c4d 5b3f d7bf 743f 80bb 973f 9c58 d83f
000001e0: bf62 743f 4854 c63f f09f b73f 482a 713f
000001f0: 6263 703f 6752 3a3f 3f92 673f 250d 523f

bias f4 [128]
-0.10839244 0.8744565 0.7243051 0.15384318 -0.22118944 -0.26931897 0.069867976 0.232196
0.45303923 0.18378879 0.7925321 -0.537865 -0.2636033 0.8172494 0.7004207 0.62696785
-0.43219495 0.9550608 0.22692102 0.041397005 0.17191383 0.29622567 -0.18595517 0.39875206
0.82546747 0.15557204 0.09086342 0.8372928 0.8563361 1.111172 0.19649546 0.5455066
0.4929216 0.12843746 0.7001795 0.00756378 -0.2831373 0.18159124 1.3945876 0.0086529665
0.46623814 0.4286825 0.54895306 0.11169445 -0.18839239 0.33091798 0.08896219 -0.65081304
0.6612399 0.058360025 -0.0619914 -0.029064288 0.6473885 1.0009133 -0.123775415 0.34541294
0.16344553 -0.23736572 0.35258576 -0.44244123 -0.012663941 0.3589427 0.7453522 0.3275994
-0.43478724 0.7229348 0.2991319 0.59410036 0.28192985 -0.48416564 -0.3919038 0.036748733
0.7251906 -0.074927405 0.951567 -0.11471242 0.027317459 0.50448877 0.798262 0.8126087
0.31525615 0.47684357 0.029847803 0.26121277 -1.3562193 0.49369705 -0.67124146 1.0721956
0.21052231 0.69960594 -0.22737205 0.53998697 0.4610555 0.90962625 0.20479952 0.5082935
0.49056286 0.09842937 0.59778535 -0.13121608 0.4726685 0.497961 0.7455853 0.48146415
0.09884302 0.36987668 0.6435764 0.13206166 -0.18007767 -0.04427449 0.48770395 -0.8953889
0.7622254 -0.034537513 0.084021196 -0.23589568 0.26703694 1.127886 -0.22876276 -0.17904294
-0.17476761 -1.4524904 -0.1732083 0.13743992 0.07929557 0.7266557 -0.0007580092 0.5785905
00000000: dbfc ddbd 62dc 5f3f 0f6c 393f 1189 1d3e
00000010: 7c7f 62be 2de4 89be f116 8f3d cac4 6d3e
00000020: c2f4 e73e 2133 3c3e 62e3 4a3f 85b1 09bf
00000030: 03f7 86be 4237 513f c54e 333f f780 203f
00000040: a848 ddbe dd7e 743f fc5d 683e e88f 293d
00000050: 2e0a 303e e4aa 973e 086b 3ebe 3b29 cc3e
00000060: d651 533f 474e 1f3e 9a16 ba3d d258 563f
00000070: d838 5b3f e23a 8e3f 1b36 493e 52a6 0b3f
00000080: 3860 fc3e 1c85 033e f73e 333f 96d9 f73b
00000090: 5ff7 90be 0ef3 393e d981 b23f 2cc5 0d3c
000000a0: c4b6 ee3e 467c db3e 3088 0c3f 0fc0 e43d
000000b0: efe9 40be 156e a93e cf31 b63d af9b 26bf
000000c0: 0547 293f ec0a 6f3d b2ea 7dbd 3b18 eebc
000000d0: 41bb 253f ed1d 803f f77d fdbd f7d9 b03e
000000e0: 445e 273e 0010 73be 1f86 b43e a887 e2be
000000f0: 6b7c 4fbc 56c7 b73e 67cf 3e3f 1cbb a73e
00000100: 6f9c debe 4112 393f d127 993e f616 183f
00000110: 1c59 903e 8fe4 f7be 9da7 c8be d785 163d
00000120: 17a6 393f 8a73 99bd e599 733f 58ee eabd
00000130: ddc8 df3c 2d26 013f e65a 4c3f 2007 503f
00000140: 4169 a13e d724 f43e 6183 f43c aebd 853e
00000150: 9898 adbf dcc5 fc3e 7bd6 2bbf b53d 893f
00000160: 2993 573e 6019 333f 38d4 68be 963c 0a3f
00000170: 770f ec3e 44dd 683f f7b6 513e 861f 023f
00000180: 0e2b fb3e 5695 c93d 7608 193f 825d 06be
00000190: 9b01 f23e bff4 fe3e aede 3e3f 7882 f63e
000001a0: 366e ca3d 7a60 bd3e 6cc1 243f 2c3b 073e
000001b0: 4866 38be 2b59 35bd 55b4 f93e 3538 65bf
000001c0: 3421 433f 3577 0dbd 4e13 ac3d a38e 71be
000001d0: 11b9 883e 925e 903f c940 6abe 0857 37be
000001e0: 48f6 32be 35eb b9bf 845d 31be 0dbd 0c3e
000001f0: b765 a23d 1c06 3a3f 23b5 46ba 821e 143f

running_mean f4 [128]
0.48776573 -0.6195595 -0.25214145 0.26372918 -2.013722 1.3600214 -0.010573656 1.6077951
-1.0811781 -0.6600153 1.0507708 -0.7101086 -0.97339725 -1.1212775 1.219067 -0.297572
0.33008742 -0.26704884 -2.6195824 0.3018971 0.44746262 1.2549558 -0.0477534 0.6206104
-0.1963128 0.40693146 -0.64419466 -0.4586469 0.47485808 0.78034145 -1.0210737 -2.798248
-0.54937404 0.029751766 -0.1696694 0.591358 -1.9895334 -0.33915952 1.1725653 1.2076867
1.0151498 -1.6158088 0.3542313 0.9191854 -0.28682348 1.1730701 0.0350444 0.79989326
1.373732 -1.0468171 0.13947667 2.1224506 0.09560129 0.10522783 -1.5109905 -0.78335375
1.1758935 1.8841993 -2.1631548 -0.65513486 1.4687591 -1.2527008 -0.8080149 0.16329414
1.8544942 -1.2048837 -1.0162176 1.9963629 0.3798496 -1.2299387 -0.5020204 -0.56630856
1.8360113 -2.3771493 -1.0378175 0.6111206 -0.60730416 -1.1325607 0.2474074 0.90303254
3.954498 -1.2692989 2.2763944 0.45663387 0.12013768 1.5533857 -2.2740936 1.7966199
-1.3076955 0.5727374 0.13782504 -1.3358328 -1.7965014 -0.43600297 2.5667992 0.010688347
-0.6364279 0.0944046 0.14594494 -0.57900876 1.1785431 -1.5125141 -0.6249402 0.8176728
-0.5953461 -0.7249145 -0.32423687 -1.696686 -0.22836041 -0.2800085 -0.6369192 -2.5450008
-1.7990372 1.9233462 0.667416 -1.7703211 0.3061144 -0.43093672 -0.8437952 -0.96819836
1.8966113 -0.2575319 -0.54492307 -0.01925323 0.42852342 1.1245223 -0.96124965 -0.85208696
00000000: 6ebc f93e 749b 1ebf af18 81be 8307 873e
00000010: d2e0 00c0 2e15 ae3f 213d 2dbc 3bcc cd3f
00000020: 0b64 8abf c3f6 28bf a87f 863f adc9 35bf
00000030: 9030 79bf 0586 8fbf 630a 9c3f 5b5b 98be
00000040: 3801 a93e a0ba 88be 3da7 27c0 4292 9a3e
00000050: d219 e53e 64a2 a03f 1299 43bd 53e0 1e3f
00000060: 3906 49be 5259 d03e f1e9 24bf c4d3 eabe
00000070: 9920 f33e 75c4 473f 8bb2 82bf 7f16 33c0
00000080: c7a3 0cbf fab9 f33c d1bd 2dbe 3d63 173f
00000090: 08a9 febf 51a6 adbe 9f16 963f 7a95 9a3f
000000a0: 6ef0 813f d3d2 cebf ce5d b53e bc4f 6b3f
000000b0: 87da 92be 2927 963f b78a 0f3d cec5 4c3f
000000c0: 73d6 af3f 1afe 85bf f9d2 0e3e 3bd6 0740
000000d0: 9cca c33d b081 d73d 2368 c1bf df89 48bf
000000e0: ae83 963f 712d f13f 2171 0ac0 ebb6 27bf
000000f0: 4c00 bc3f 8058 a0bf 11da 4ebf 9436 273e
00000100: 1160 ed3f a139 9abf 6b13 82bf d288 ff3f
00000110: a67b c23e a26e 9dbf 6984 00bf 99f9 10bf
00000120: 6b02 eb3f 3723 18c0 34d7 84bf 6672 1c3f
00000130: 4978 1bbf c0f7 90bf 5e58 7d3e 242d 673f
00000140: 7f16 7d40 6378 a2bf 72b0 1140 eacb e93e
00000150: be0a f63d 58d5 c63f c08a 11c0 a4f7 e53f
00000160: 9162 a7bf eb9e 123f 0222 0d3e 92fc aabf
00000170: c2f3 e5bf c83b dfbe 7046 2440 2d1e 2f3c
00000180: f0ec 22bf 3357 c13d 9772 153e eb39 14bf
00000190: 80da 963f 109a c1bf 15fc 1fbf 0153 513f
000001a0: 9a68 18bf ff93 39bf 6002 a6be 022d d9bf
000001b0: 50d7 69be 465d 8fbe 230d 23bf 4be1 22c0
000001c0: da46 e6bf 3530 f63f c6db 2a3f e299 e2bf
000001d0: 07bb 9c3e bda3 dcbe f602 58bf d9db 77bf
000001e0: 29c4 f23f 39db 83be 1480 0bbf f3b8 9dbc
000001f0: 6c67 db3e 59f0 8f3f 7514 76bf 5f22 5abf

running_var f4 [128]
2.1142292 1.620311 1.7275461 2.8311856 1.8876309 2.280161 1.7460922 1.7433354
2.0056562 3.4250035 2.2561798 2.4668353 3.104122 1.9962431 2.1951435 1.7897862
2.5552623 1.7830522 2.36048 2.865923 1.5088193 3.949878 3.376233 2.5850167
1.9220388 1.8525791 2.0143154 2.47988 1.813851 4.518912 1.973348 2.2638555
2.0791662 2.1769772 2.6676264 1.6927496 1.9722472 1.955882 1.9182078 2.1291358
1.9662838 3.5088878 1.5158683 2.1749036 1.674392 1.6163332 3.7109072 2.0051572
2.0145643 1.2946486 2.8328307 1.4551516 1.7816559 2.4346523 2.0756917 2.1356676
1.8513312 2.66959 1.6924303 2.0117426 1.8283844 1.7470928 2.1530726 2.2228205
2.0111828 2.7679052 2.3229675 2.488042 1.627383 3.492368 1.4936329 2.0889697
4.4818153 3.1077106 1.9497173 4.1316037 2.541621 2.3139172 2.7237244 2.1388764
2.9663765 1.9676731 3.0952892 2.2984705 2.1686254 3.0332067 2.892012 2.4443622
2.5928962 1.6541797 2.1239433 1.9152429 2.4583437 2.8319478 3.4341078 2.1849363
3.557953 2.6573663 1.9043041 1.6881553 2.334827 2.008537 2.1113613 2.4772441
3.3520014 3.92566 1.869376 1.1375493 2.8892336 1.832479 6.2046556 1.4612952
2.0970142 3.392377 3.1408203 2.328971 2.778771 2.1789062 3.0249255 2.466037
3.1032352 2.4448428 2.2505865 2.6010013 1.6886338 1.7757262 3.0670958 4.675405
00000000: 884f 0740 5a66 cf3f 3b20 dd3f 2532 3540
00000010: e49d f13f 28ee 1140 f37f df3f 9d25 df3f
00000020: ac5c 0040 4233 5b40 4065 1040 a1e0 1d40
00000030: efa9 4640 e584 ff3f 3b7d 0c40 b717 e53f
00000040: 6b89 2340 0e3b e43f 1b12 1740 486b 3740
00000050: fe20 c13f cdca 7c40 3414 5840 ea70 2540
00000060: 5e05 f63f 5021 ed3f 8bea 0040 5bb6 1e40
00000070: 452c e83f ed9a 9040 ab96 fc3f 02e3 1040
00000080: 0f11 0540 9853 0b40 64ba 2a40 05ac d83f
00000090: 9972 fc3f 575a fa3f d587 f53f c343 0840
000000a0: 30af fb3f 9e91 6040 f907 c23f 9f31 0b40
000000b0: 7a52 d63f 02e4 ce3f 817f 6d40 7f54 0040
000000c0: 9fee 0040 0cb7 a53f 194d 3540 6842 ba3f
000000d0: 4d0d e43f 58d1 1b40 22d8 0440 c7ae 0840
000000e0: 6cf8 ec3f 90da 2a40 8ea1 d83f 64c0 0040
000000f0: 8008 ea3f bda0 df3f f1cb 0940 b142 0e40
00000100: 38b7 0040 5c25 3140 80ab 1440 153c 1f40
00000110: 164e d03f f582 5f40 5d2f bf3f aeb1 0540
00000120: 086b 8f40 bbe4 4640 5690 f93f 1936 8440
00000130: eba9 2240 3817 1440 8051 2e40 5ae3 0840
00000140: 1dd9 3d40 b6dc fb3f 3819 4640 241a 1340
00000150: c2ca 0a40 0f20 4240 b916 3940 6e70 1c40
00000160: 03f2 2540 29bc d33f b0ee 0740 ae26 f53f
00000170: 8155 1d40 a23e 3540 6cc8 5b40 ffd5 0b40
00000180: 80b5 6340 4a12 2a40 3dc0 f33f 7915 d83f
00000190: ce6d 1540 df8b 0040 8b20 0740 2b8b 1e40
000001a0: 3187 5640 033e 7b40 b647 ef3f 379b 913f
000001b0: 34e9 3840 ac8e ea3f 8a8c c640 b90b bb3f
000001c0: 7b35 0640 b41c 5940 3303 4940 dc0d 1540
000001d0: 62d7 3140 3373 0b40 6198 4140 8dd3 1d40
000001e0: 689b 4640 4e78 1c40 9c09 1040 ce76 2640
000001f0: 2725 d83f ff4a e33f 4c4b 4440 eb9c 9540

weight f4 [64]
0.8677495 0.7188211 0.5858053 0.8765461 0.6937551 0.7423266 0.99049956 0.6722091
0.9954317 1.0775511 0.59973603 0.81663775 1.10233 0.60248786 0.9492935 1.0030773
1.0825344 0.6966581 0.798685 0.8001792 0.6325648 1.2134508 0.6958796 1.0973052
0.783466 0.72400045 0.6558096 0.8400527 0.8350664 1.2307472 0.80358404 1.0588952
0.7865214 0.65856916 0.8332689 0.6473786 0.7199193 0.59115994 0.6520867 0.9389224
0.6710868 0.88004684 0.9277146 0.7802139 0.80659705 0.657236 1.2831846 0.6870111
0.88251424 0.9986302 0.7590552 0.67430854 0.7559953 1.0802003 0.8514472 0.7310634
0.73411864 0.7252397 0.77853614 0.84310216 0.61931205 0.9142833 0.7991637 1.0837094
00000000: d524 5e3f a904 383f 56f7 153f 5365 603f
00000010: ef99 313f 1e09 3e3f 6191 7d3f e515 2c3f
00000020: 9dd4 7e3f 32ed 893f 4d88 193f 2c0f 513f
00000030: 2619 8d3f a53c 1a3f e604 733f d664 803f
00000040: 7d90 8a3f 2f58 323f 9f76 4c3f 8bd8 4c3f
00000050: c4ef 213f 5b52 9b3f 2a25 323f 7f74 8c3f
00000060: 3a91 483f 1858 393f 23e3 273f b20d 573f
00000070: e9c6 553f 2089 9d3f afb7 4d3f e189 873f
00000080: 7759 493f fd97 283f 1c51 553f 9bba 253f
00000090: a24c 383f 4256 173f 27ef 263f 385d 703f
000000a0: 58cc 2b3f c04a 613f b47e 6d3f 19bc 473f
000000b0: 257d 4e3f 9e40 283f 653f a43f f6df 2f3f
000000c0: 74ec 613f 3ba6 7f3f 7151 423f 7c9f 2c3f
000000d0: e888 413f 0144 8a3f 72f8 593f f926 3b3f
000000e0: 33ef 3b3f 4fa9 393f 254e 473f 8bd5 573f
000000f0: 3c8b 1e3f 780e 6a3f fe95 4c3f fdb6 8a3f

bias f4 [64]
-0.29505256 -0.1727618 -0.046244416 -0.2805517 -0.3844146 -0.29284322 -0.75692177 -0.21922602
-0.5048447 -0.26128635 -0.10173117 -0.60044044 -0.4537939 -0.07593756 -0.40780482 -0.6600827
-0.3901224 -0.33660874 -0.32296816 -0.47941187 -0.44343057 -0.213252 -0.44119263 -0.45742923
-0.19707933 -0.38018453 -0.25878552 -0.4198735 -0.33057272 -0.6619137 -0.5814849 -0.6397658
-0.668523 -0.6301723 -0.43618792 -0.23291853 -0.46560264 -0.13931692 0.11264004 -0.8515769
-0.4512074 -0.096617416 -0.4020693 -0.2684958 -0.6921464 -0.2810374 -0.30620623 0.032494795
-0.50114167 -0.27679572 -0.08600717 -0.8175933 -0.12009024 -1.0185633 -0.18619254 -0.511029
-0.5219575 -0.2816446 -0.5735284 -0.5869274 -0.32416737 -0.6513732 -0.7077292 -0.6418128
00000000: 2111 97be 78e8 30be c96a 3dbd 79a4 8fbe
00000010: fed1 c4be 8cef 95be a0c5 41bf c97c 60be
00000020: 813d 01bf 53c7 85be 6f58 d0bd 77b6 19bf
00000030: ad57 e8be 2785 9bbd cbcb d0be 2efb 28bf
00000040: 20be c7be fb57 acbe 155c a5be 7975 f5be
00000050: 5509 e3be bb5e 5abe 00e4 e1be 2a34 eabe
00000060: 2acf 49be 8ca7 c2be 897f 84be a9f9 d6be
00000070: d440 a9be 2d73 29bf 32dc 14bf b1c7 23bf
00000080: 5324 2bbf f952 21bf 0654 dfbe 3282 6ebe
00000090: 7863 eebe 18a9 0ebe d2af e63d f200 5abf
000000a0: a804 e7be 5adf c5bd 07dc cdbe 4878 89be
000000b0: 8230 31bf 22e4 8fbe 10c7 9cbe 4319 053d
000000c0: d24a 00bf 2bb8 8dbe 8724 b0bd cb4d 51bf
000000d0: dff1 f5bd 4860 82bf 42a9 3ebe ccd2 02bf
000000e0: 029f 05bf b933 90be c2d2 12bf e040 16bf
000000f0: 44f9 a5be 65c0 26bf be2d 35bf d84d 24bf

running_mean f4 [64]
4.815834 8.9557085 7.179017 6.0954523 5.8378983 5.0252366 4.7154393 7.885608
9.381502 4.973039 10.368621 4.183388 5.671827 7.983222 9.403232 8.838675
6.471944 8.50127 4.273016 6.360542 6.467186 8.402719 3.6887748 10.859611
6.2191396 7.289635 6.2531443 8.170369 7.5427523 10.1361475 5.542301 8.25532
7.583502 6.7906265 7.84771 5.497168 7.499436 7.075424 9.937951 7.89659
7.6818204 8.747883 8.024024 5.493814 4.944181 6.134084 9.243296 2.8541055
8.9304085 4.549079 4.947273 5.172435 7.041991 12.132124 5.754891 6.257493
4.8646255 2.3110378 5.618496 5.58015 5.372974 8.208499 5.5202575 7.608273
00000000: 501b 9a40 954a 0f41 82ba e540 f20d c340
00000010: 10d0 ba40 bdce a040 e1e4 9640 e756 fc40
00000020: a21a 1641 2323 9f40 dfe5 2541 51de 8540
00000030: 9b7f b540 8e76 ff40 a373 1641 366b 0d41
00000040: 2a1a cf40 3405 0841 8cbc 8840 8f89 cb40
00000050: 30f3 ce40 8971 0641 e314 6c40 f7c0 2d41
00000060: 3103 c740 b144 e940 c219 c840 d5b9 0241
00000070: 3a5e f140 a92d 2241 885a b140 ca15 0441
00000080: 0cac f240 d04c d940 7120 fb40 cde8 af40
00000090: 61fb ef40 e069 e240 d901 1f41 deb0 fc40
000000a0: 79d1 f540 54f7 0b41 6762 0041 53cd af40
000000b0: bb36 9e40 6b4a c440 8ae4 1341 aaa9 3640
000000c0: f4e2 0e41 0e92 9140 0f50 9e40 9684 a540
000000d0: fe57 e140 2e1d 4241 1128 b840 623d c840
000000e0: 03ab 9b40 0be8 1340 b8ca b340 9790 b240
000000f0: 67ef ab40 0356 0341 f3a5 b040 f976 f340

running_var f4 [64]
15.273563 17.323391 27.97482 17.232082 23.586344 16.655504 14.798536 63.758625
20.777832 5.180167 38.16422 12.267904 14.743186 16.394207 31.075825 31.164148
18.494255 29.42186 5.9075704 16.545794 47.246193 28.499352 8.5138855 16.858324
12.997355 34.893173 36.85157 15.408056 10.075129 7.4610987 8.401208 32.955746
25.10495 24.196619 27.864897 17.441212 60.66672 38.10009 19.03285 20.530304
54.839645 20.48835 15.76879 16.02818 16.76269 15.76198 29.574507 6.886617
21.38704 8.905298 11.683249 23.073326 19.351763 24.03085 14.873961 25.16751
13.883994 7.432304 17.281866 13.80391 25.382074 21.909018 15.545069 24.994164
00000000: 8460 7441 4e96 8a41 6ecc df41 4edb 8941
00000010: d5b0 bc41 793e 8541 cec6 6c41 d508 7f42
00000020: 0039 a641 eec3 a540 29a8 1842 5649 4441
00000030: 17e4 6b41 5627 8341 4a9b f841 2d50 f941
00000040: 3cf4 9341 f85f eb41 d10a bd40 c95d 8441
00000050: 1afc 3c42 acfe e341 e038 0841 d9dd 8641
00000060: 2bf5 4f41 9c92 0b42 0268 1342 6687 7641
00000070: ba33 2141 52c1 ee40 596b 0641 afd2 0342
00000080: f0d6 c841 ad92 c141 4feb de41 9a87 8b41
00000090: b9aa 7242 7e66 1842 4743 9841 103e a441
000000a0: cc5b 5b42 24e8 a341 f74c 7c41 b639 8041
000000b0: fd19 8641 1231 7c41 9798 ec41 2b5f dc40
000000c0: a818 ab41 1a7c 0e41 97ee 3a41 2c96 b841
000000d0: 69d0 9a41 2e3f c041 bffb 6d41 0f57 c941
000000e0: d724 5e41 6fd5 ed40 4341 8a41 d1dc 5c41
000000f0: 7d0e cb41 ab45 af41 9ab8 7841 0cf4 c741

weight f4 [128, 169]
-0.039278753 0.051316574 -0.03568802 -0.12889071 0.050436266 -0.25414145 -0.3055213 0.050773833
-0.015164885 -0.20623796 -0.2819505 -0.19711709 -0.35772464 0.5465755 0.58241874 0.13181674
-0.28622448 -0.050300274 -0.13917476 -0.32156178 0.076562464 0.4404615 0.36054108 0.50515956
-0.2672856 0.11913759 -0.3568604 0.027782405 -0.4819275 -0.16644761 -0.02073725 -0.1879416
0.5460685 0.041590743 0.16030972 -0.224542 0.062172066 -0.3305358 -0.4564716 -0.02533122
0.6153873 -0.13520923 -0.16079536 0.0031352134 0.22102997 0.023506077 -0.24057056 -0.22735779
-0.16819027 0.067800134 -0.037284967 0.1624134 -0.3555221 0.080386326 -0.101201564 -0.040054455
0.22570829 0.61714876 -0.06028602 -0.17774725 0.42376125 0.6112411 -0.3065673 0.04568882
-0.3349159 -0.04201189 -0.039921697 0.14601286 -0.0510845 0.3379784 0.33801466 0.177101
0.32464185 0.201106 -0.16587052 0.21923885 0.37542668 -0.17289807 -0.020715034 -0.13975269
0.12535776 0.070240244 0.14944814 0.39384025 -0.17397583 -0.32490197 -0.27025518 -0.30874854
-0.2596513 0.3859124 0.04734894 0.36889088 0.17083544 0.3000176 -0.30013192 0.34595713
-0.26090947 -0.23333566 -0.14624764 0.6207393 0.40571204 -0.00531516 -0.11232571 0.08490013
0.024807733 0.33879632 0.13227779 -0.49585512 -0.08101044 -0.07477914 0.60419977 -0.4445389
0.021001706 0.05256249 0.2258671 -0.61216265 0.3307094 -0.19783466 -0.40012088 -0.196989
-0.049608514 0.20409729 -0.35938567 0.13629974 0.043417897 -0.004701359 -0.15946378 0.10406112
0.013189985 -0.04866392 -0.8197035 -0.21111216 0.06714434 0.16780387 -0.8459021 -0.6272449
-0.12588175 1.1543287 0.9928166 -0.07059788 0.41200238 -0.43015125 -0.07424353 -0.14828512
-0.31097454 -0.6446992 0.43927693 0.5207671 -0.104271665 -0.06091735 -0.9044095 -0.63661027
-0.18578461 1.0406228 1.244844 1.1675195 1.7317754 1.004352 -0.29403657 -0.51441073
-0.5587275 -0.5849489 -0.8781358 0.20508546 0.074393086 0.03188276 -0.0053320033 -0.0044056987
0.049930833 0.17168364 0.15755758 -0.12801051 0.4340305 -0.20372218 0.24114998 -0.4052518
-0.26295593 0.08445858 -0.246162 -0.1137578 -0.4126578 -0.20389336 -0.015709372 0.2561378
0.0521488 0.34434974 -0.3694758 0.16975601 -0.18238142 -0.50330675 0.4249459 -0.2062397
0.05046481 0.427129 -0.20338516 -0.17680801 0.40242204 0.18238987 -0.074397445 -0.3141344
0.7753762 -0.10430702 0.14193073 0.2163775 0.061715655 0.22307515 -0.1322158 0.4226372
0.18753009 -0.11307865 -0.12811327 0.4619562 0.039829616 -0.1309408 -0.5614583 0.085656
0.105961025 0.24993728 -0.35492685 -0.36026788 -0.43993095 0.04092515 0.27810985 -0.05260871
0.023072785 -0.15066001 -0.07941335 0.6987132 0.13497134 0.05500294 -0.012638085 0.25977734
0.049761336 -0.10592398 -0.19234177 0.41649887 -0.3757959 0.13729402 -0.055994008 0.2774728
-0.014491286 -0.3036263 -0.024274511 0.04076764 0.28441587 0.24325898 0.04437963 0.22131628
-0.01029063 0.0620072 0.021353604 -0.01514765 0.012932733 0.006282176 -0.19700491 0.23718177
00000000: c2e2 20bd 5431 523d 9a2d 12bd edfb 03be
00000010: 4296 4e3d d41e 82be 4a6d 9cbe 39f8 4f3d
00000020: 2376 78bc 0b30 53be d15b 90be 10d9 49be
00000030: af27 b7be 5fec 0b3f 6519 153f f8fa 063e
00000040: 048c 92be a907 4ebd d483 0ebe bfa3 a4be
00000050: c8cc 9c3d 2b84 e13e d798 b83e 2352 013f
00000060: a8d9 88be 69fe f33d 68b6 b6be ed97 e33c
00000070: 34bf f6be 3e71 2abe 2ae1 a9bc c373 40be
00000080: 25cb 0b3f 0e5b 2a3d 3b28 243e 57ee 65be
00000090: 23a8 7e3d fd3b a9be a5b6 e9be 6b83 cfbc
000000a0: 068a 1d3f 4a74 0abe 8aa7 24be 2778 4d3b
000000b0: ae55 623e d18f c03c 2158 76be 7bd0 68be
000000c0: 123a 2cbe ccda 8a3d 1fb8 18bd b34f 263e
000000d0: fe06 b6be 96a1 a43d c442 cfbd 2410 24bd
000000e0: 1320 673e 76fd 1d3f 79ee 76bd 6003 36be
000000f0: 3cf7 d83e 4c7a 1c3f 64f6 9cbe 3324 3b3d
00000100: 197a abbe a914 2cbd ef84 23bd 6584 153e
00000110: fb3d 51bd 810b ad3e 4210 ad3e f759 353e
00000120: 7537 a63e bbee 4d3e f6d9 29be 2680 603e
00000130: ed37 c03e 310c 31be 93b2 a9bc 541b 0fbe
00000140: c95d 003e 1eda 8f3d ef08 193e 6ea5 c93e
00000150: b826 32be 8d59 a6be e35e 8abe 4a14 9ebe
00000160: 04f1 84be 4f96 c53e f6f0 413d 44df bc3e
00000170: 7cef 2e3e e89b 993e e4aa 99be 4b21 b13e
00000180: ed95 85be 8bef 6ebe f1c1 15be c5e8 1e3f
00000190: 7db9 cf3e cb2a aebb 060b e6bd 1fe0 ad3d
000001a0: 9639 cb3c b676 ad3e d473 073e b9e0 fdbe
000001b0: cde8 a5bd ce25 99bd d6ac 1a3f 9a9a e3be
000001c0: c50b ac3c c44b 573d b449 673e b1b6 1cbf
000001d0: be52 a93e 2b95 4abe a5dc ccbe 7cb7 49be
000001e0: 4c32 4bbd e1fe 503e 6601 b8be 2992 0b3e
000001f0: f7d6 313d dc0d 9abb 794a 23be ff1d d53d
00000200: cf1a 583c d253 47bd 17d8 51bf c92d 58be
00000210: f982 893d c7d4 2b3e 0a8d 58bf 1f93 20bf
00000220: 25e7 00be 0bc1 933f 3b29 7e3f 9f95 90bd
00000230: faf1 d23e c93c dcbe fe0c 98bd 0ed8 17be
00000240: 0e38 9fbe 020b 25bf e8e8 e03e fe50 053f
00000250: 628c d5bd 7984 79bd 6287 67bf e4f8 22bf
00000260: 523e 3ebe 2133 853f 0c57 9f3f 4771 953f
00000270: d1aa dd3f 9b8e 803f f68b 96be 6cb0 03bf
00000280: c408 0fbf 36bf 15bf 82cd 60bf ec01 523e
00000290: 675b 983d 7f97 023d 16b8 aebb ae5d 90bb
000002a0: 4684 4c3d d6cd 2f3e c656 213e 3015 03be
000002b0: 3f39 de3e 8c9c 50be 05f0 763e 2a7d cfbe
000002c0: 29a2 86be 9ff8 ac3d e411 7cbe d9f9 e8bd
000002d0: e247 d3be 6cc9 50be f1b0 80bc 7e24 833e
000002e0: fb99 553d 9c4e b03e ef2b bdbe 85d4 2d3e
000002f0: 32c2 3abe b6d8 00bf 8292 d93e 8030 53be
00000300: 30b4 4e3d a7b0 da3e 3344 50be 290d 35be
00000310: 430a ce3e 69c4 3a3e b05d 98bd 39d6 a0be
00000320: 0e7f 463f eb9e d5bd 4a56 113e 1092 5d3e
00000330: 8ec9 7c3d d06d 643e 9463 07be e763 d83e
00000340: e307 403e c795 e7bd 2030 03be 8685 ec3e
00000350: 6124 233d 5815 06be bbbb 0fbf 6a6c af3d
00000360: 1802 d93d 8fef 7f3e f9b8 b5be 0875 b8be
00000370: a13e e1be 21a1 273d 6a64 8e3e 3b7c 57bd
00000380: 2303 bd3c 9e46 1abe 77a3 a2bd dede 323f
00000390: ed35 0a3e c34a 613d f80f 4fbc 8901 853e
000003a0: 8bd2 4b3d acee d8bd 3ef5 44be 573f d53e
000003b0: 5268 c0be ce96 0c3e f959 65bd ea10 8e3e
000003c0: dc6c 6dbc e874 9bbe 57db c6bc f8fb 263d
000003d0: f59e 913e e218 793e 6ac7 353d bca0 623e
000003e0: 089a 28bc 43fb 7d3d c1ed ae3c d92d 78bc
000003f0: d0e3 533c b6da cd3b a8bb 49be c7df 723e

bias f4 [128]
0.024585143 -0.026440319 0.052680213 -0.1983469 0.39952132 -0.03501369 0.018794406 0.50388
0.5169369 -0.33656308 0.09576542 0.03240374 -4.4389305 2.1950042 0.054309636 -7.7243977
-0.007225709 0.02821108 0.6949197 0.42948118 -0.42288822 0.06263552 0.13222614 -0.10084781
0.11014238 -0.31277558 0.032473326 0.6941572 -0.22870037 -4.764936 -0.6152137 -0.064450264
-0.112113595 0.0020657901 -0.11894035 0.01833821 -0.08837418 0.018099748 -0.0037550465 -1.0924952
0.13625394 -0.00512148 0.057255637 0.022123957 -2.247751 0.0114245815 -0.18811145 0.08321859
0.3516551 0.015967285 0.1404601 -0.09297593 -0.16457875 -1.0322059 -0.14011177 -0.28139544
-0.020349097 -0.8838558 0.30507675 1.232313 0.031492908 -0.030466529 -0.41779283 -0.0001684913
0.19386719 -0.12877572 0.043818068 -0.07827899 0.25115302 0.11615344 -0.040287063 0.18790694
0.17915434 -0.2643479 -0.11551493 0.008593968 -3.263519 1.1169461 -0.021783583 -3.1737885
0.004551875 0.016372498 0.5135241 0.39057046 -0.3114893 -0.015834115 0.08175586 -0.080403276
0.02531215 -0.004685056 -0.027766813 0.27096877 -0.19937225 -3.1324825 -0.5179797 0.03987278
-0.101664975 -0.06681469 -0.087506205 -0.052946188 -0.052923188 0.007803847 -0.06904565 -0.82886064
0.10093746 -0.037103128 -0.0110967215 -0.11527199 -0.5383844 0.07190676 -0.19555353 0.01085804
0.34933534 0.003691089 0.28192368 -0.22763328 0.0716493 -0.6553076 0.018763326 -0.17749043
-0.07700354 -0.6346131 0.3432267 0.8141191 -0.1794384 0.06913969 -0.16507159 -0.11084888
00000000: c866 c93c 5e99 d8bc 35c7 573d 731b 4bbe
00000010: 0f8e cc3e 846a 0fbd baf6 993c 48fe 003f
00000020: fa55 043f ff51 acbe a920 c43d c9b9 043d
00000030: b80b 8ec0 f37a 0c40 c873 5e3d 442e f7c0
00000040: a4c5 ecbb ec1a e73c 42e6 313f f5e4 db3e
00000050: ce84 d8be 0d47 803d 4a66 073e 4c89 cebd
00000060: 5492 e13d 1f24 a0be c002 053d 49b4 313f
00000070: 6e30 6abe 5b7a 98c0 a57e 1dbf 80fe 83bd
00000080: d09b e5bd 3562 073b 0097 f3bd 043a 963c
00000090: 86fd b4bd ec45 943c 3a17 76bb e2d6 8bbf
000000a0: 2786 0b3e 17d2 a7bb e384 6a3d 4d3d b53c
000000b0: 27db 0fc0 2b2e 3b3c 4aa0 40be 826e aa3d
000000c0: 230c b43e d3cd 823c c6d4 0f3e 2a6a bebd
000000d0: 5587 28be 531f 84bf 7679 0fbe 1013 90be
000000e0: 26b3 a6bc 6044 62bf 0533 9c3e 6fbc 9d3f
000000f0: b5fe 003d f194 f9bc f1e8 d5be 0aad 30b9
00000100: 1f85 463e c8dd 03be 937a 333d bc50 a0bd
00000110: 2197 803e dbe1 ed3d 0c04 25bd ad6a 403e
00000120: 3c74 373e 9c58 87be 1793 ecbd b7cd 0c3c
00000130: 7fdd 50c0 17f8 8e3f 7c73 b2bc 5a1f 4bc0
00000140: e527 953b 9e1f 863c 5176 033f daf8 c73e
00000150: 877b 9fbe 8cb6 81bc 9e6f a73d 79aa a4bd
00000160: 6d5b cf3c 1985 99bb 3a77 e3bc 6bbc 8a3e
00000170: 3d28 4cbe 987a 48c0 519a 04bf a451 233d
00000180: ba35 d0bd 24d6 88bd 7436 b3bd 1ade 58bd
00000190: fcc5 58bd 6ab7 ff3b ce67 8dbd 3630 54bf
000001a0: 4db8 ce3d 73f9 17bd 06cf 35bc b913 ecbd
000001b0: 8fd3 09bf da43 933d 2f3f 48be ece5 313c
000001c0: 15dc b23e 33e6 713b 4d58 903e b318 69be
000001d0: debc 923d 3dc2 27bf 8cb5 993c 0dc0 35be
000001e0: 08b4 9dbd 0176 22bf 69bb af3e 1c6a 503f
000001f0: b3be 37be 1c99 8d3d 8708 29be bd04 e3bd

weight f4 [128]
2.914592 4.0093784 2.3999043 4.584095 6.6523747 3.5306075 3.6797302 4.1201015
6.1479483 2.9949017 5.319012 2.1193893 7.5697494 7.3879557 5.0154204 7.8587556
4.8626504 2.1266456 4.0257316 4.429973 4.9980745 2.3523467 5.020968 3.4925897
3.392182 2.9621184 3.3615057 5.720739 5.4358516 7.743956 4.7141757 2.4335217
4.204764 3.0735989 2.9118965 2.9460666 3.7394469 2.9495416 3.105185 5.5170884
3.57494 3.6635406 1.7493845 2.8132486 6.673304 3.8282776 5.131139 3.5753522
6.228196 2.4320092 4.7502728 3.1495845 2.103482 4.5629387 4.235951 3.709602
2.8586829 6.3908453 4.7096105 5.3226686 2.356433 3.0554402 3.29965 2.0397391
1.3961872 1.0722368 0.36113194 1.3963143 1.1189302 0.8522886 0.9741542 1.8317728
1.9882866 1.2120947 1.5254056 1.6341054 1.4681658 1.102712 1.4099003 1.6535192
0.9909696 0.5741971 1.7926378 2.7101996 0.87291 1.1701756 0.58949137 1.3632072
0.7944902 1.6148077 0.74712074 1.5664362 0.65491277 1.5266665 1.267313 2.8008907
1.51471 0.4955611 0.65486056 1.273411 1.3356578 0.96981424 0.7863587 1.1035169
1.538076 0.69834095 0.64040077 2.064129 1.0255725 0.9224714 1.1740348 1.0452293
1.308067 0.9559165 0.84739894 1.3405322 1.3436456 2.2777424 0.71492946 1.5954448
2.9562328 1.899492 1.7410787 1.2526151 1.8255137 0.66374797 2.1802387 1.1227844
00000000: ad88 3a40 d44c 8040 0898 1940 e8b0 9240
00000010: 41e0 d440 79f5 6140 b380 6b40 dfd7 8340
00000020: febb c440 78ac 3f40 5935 aa40 13a4 0740
00000030: 633b f240 226a ec40 537e a040 ed7a fb40
00000040: d59a 9b40 f61a 0840 cbd2 8040 57c2 8d40
00000050: 3af0 9f40 d98c 1640 c5ab a040 9786 5f40
00000060: 8319 5940 5993 3d40 e922 5740 4b10 b740
00000070: 7ff2 ad40 7dce f740 87da 9640 d2be 1b40
00000080: 6d8d 8640 d8b5 4440 835c 3a40 5b8c 3c40
00000090: 1953 6f40 4ac5 3c40 5abb 4640 fd8b b040
000000a0: d1cb 6440 7377 6a40 d5eb df3f 440c 3440
000000b0: b58b d540 8002 7540 4a32 a440 92d2 6440
000000c0: 624d c740 0aa6 1b40 3c02 9840 cb92 4940
000000d0: 739f 0640 9803 9240 e98c 8740 1f6a 6d40
000000e0: a9f4 3640 ce81 cc40 21b5 9640 4d53 aa40
000000f0: cccf 1640 558c 4340 772d 5340 168b 0240
00000100: 43b6 b23f 0e3f 893f 49e6 b83e 6dba b23f
00000110: 1b39 8f3f 962f 5a3f 2b62 793f 8877 ea3f
00000120: 2d80 fe3f eb25 9b3f 7e40 c33f 5e2a d13f
00000130: dbec bb3f ab25 8d3f 9d77 b43f 84a6 d33f
00000140: 2fb0 7d3f 95fe 123f 2875 e53f e973 2d40
00000150: 0877 5f3f 50c8 953f e8e8 163f 937d ae3f
00000160: b663 4b3f 05b2 ce3f 4e43 3f3f fb80 c83f
00000170: 5da8 273f cf69 c33f 5037 a23f cb41 3340
00000180: 04e2 c13f 2fba fd3e f1a4 273f 22ff a23f
00000190: d6f6 aa3f bf45 783f ce4e 493f 0b40 8d3f
000001a0: addf c43f 79c6 323f 4ef1 233f b11a 0440
000001b0: f645 833f 1627 6c3f c646 963f 13ca 853f
000001c0: bd6e a73f f2b6 743f 23ef 583f 8f96 ab3f
000001d0: 94fc ab3f 88c6 1140 9e05 373f 8937 cc3f
000001e0: eb32 3d40 8e22 f33f abdb de3f b155 a03f
000001f0: 6faa e93f 63eb 293f 0889 0b40 66b7 8f3f

bias f4 [128]
0.5965427 -0.49472046 0.8590306 -0.823761 -0.5491999 0.31155145 1.4030355 0.033453975
-0.7374659 0.19940968 -0.16572422 0.2435377 -0.6415729 -0.6605112 -0.10722563 1.5351706
0.27451283 0.99538225 0.41368732 -0.03379 0.11265357 0.34753144 0.35035762 -0.043389793
0.40709782 0.13200928 0.28408235 0.020320293 0.51770365 -0.16418098 -0.9191114 0.17944947
0.87288517 1.057959 0.5446696 0.050317053 0.30040175 0.82951003 0.60611975 -0.7466069
0.9704885 0.19606607 0.8327155 -0.18164314 0.4383269 0.43376383 0.5631833 -0.02776986
-0.42280695 0.74298453 1.0361909 0.39038736 -0.29966465 -0.68480676 0.58965653 -0.49508682
-0.34447604 -0.708853 -0.07512069 -0.2576763 0.62868935 0.7949074 -0.00951322 0.80199975
0.15918767 0.08937479 0.3904993 -0.99887073 -0.5840152 0.4155837 0.5224567 -0.5369523
-1.3739413 0.05351952 -0.6889361 0.35622597 0.21051759 -0.7646763 0.20899764 0.3322174
-0.64532423 0.45821404 0.13665898 -0.13623007 -0.0064160586 0.005517304 0.3349409 0.30886096
0.46774784 -0.6458298 0.12475316 -0.1139308 0.19816414 0.06770695 -0.63644564 0.053459525
0.90823066 0.6568 0.5727403 -0.004960038 -0.34706393 0.53623354 0.29706657 -0.33178514
-0.33136028 0.18731599 0.66769844 -0.68654764 0.31315237 0.51957995 0.17539097 -0.17011103
-0.17674083 0.5247358 0.14029174 -0.21962386 -0.29178074 -0.30835268 0.27606952 -0.22813822
-0.58366215 -1.0898898 -0.36849582 0.11894036 0.24452679 0.6890064 -0.6907865 0.97896117
00000000: 06b7 183f 004c fdbe 6ee9 5b3f 00e2 52bf
00000010: 5d98 0cbf ac83 9f3e ab96 b33f 0907 093d
00000020: 91ca 3cbf 0d32 4c3e 9cb3 29be f261 793e
00000030: 1f3e 24bf 4317 29bf 1c99 dbbd 7880 c43f
00000040: f28c 8c3e 5fd1 7e3f d3ce d33e 6267 0abd
00000050: eab6 e63d a4ef b13e 1362 b33e 7fb9 31bd
00000060: 206f d03e 712d 073e 3e73 913e be76 a63c
00000070: 3a88 043f 0f1f 28be e24a 6bbf 9ac1 373e
00000080: 6775 5f3f 336b 873f 786f 0b3f 4119 4e3d
00000090: 42ce 993e c55a 543f aa2a 1b3f a121 3fbf
000000a0: ef71 783f 8bc5 483e d82c 553f a900 3abe
000000b0: 626c e03e 4b16 de3e c82c 103f 9e7d e3bc
000000c0: 277a d8be 3c34 3e3f e7a1 843f dae0 c73e
000000d0: a56d 99be 7f4f 2fbf bbf3 163f 057c fdbe
000000e0: 2a5f b0be 6477 35bf e0d8 99bd 26ee 83be
000000f0: c9f1 203f 0d7f 4b3f 56dd 1bbc db4f 4d3f
00000100: 1802 233e 210a b73d 86ef c73e feb5 7fbf
00000110: 0582 15bf 63c7 d43e b9bf 053f b575 09bf
00000120: 4fdd afbf 4937 5b3d 1e5e 30bf 4063 b63e
00000130: ec91 573e d3c1 43bf 7a03 563e 6618 aa3e
00000140: f833 25bf 089b ea3e 55f0 0b3e e57f 0bbe
00000150: cd3d d2bb 80ca b43b 607d ab3e 0623 9e3e
00000160: a57c ef3e 1a55 25bf 967e ff3d 8d54 e9bd
00000170: 8aeb 4a3e f1a9 8a3d 1aee 22bf 60f8 5a3d
00000180: ce81 683f 0b24 283f 1c9f 123f d087 a2bb
00000190: 5db2 b1be 9a46 093f 1c19 983e bedf a9be
000001a0: 0ea8 a9be c3cf 3f3e 49ee 2a3f 96c1 2fbf
000001b0: 8255 a03e 3103 053f b199 333e 9631 2ebe
000001c0: 8cfb 34be 1655 063f a3a8 0f3e 14e5 60be
000001d0: 4964 95be 67e0 9dbe fc58 8d3e 119d 69be
000001e0: e26a 15bf 8281 8bbf 7cab bcbe 0197 f33d
000001f0: 3b65 7a3e b962 303f 62d7 30bf 339d 7a3f
